checkpoint_critic_1.pth (torch_old, 187449 bytes, 5 tensors)

fc1.weight f4 [256, 52]
0	0xbcfabdf5	-0.030608157
1	0x3f226a82	0.6344377
2	0xbc0f0cf9	-0.00873112
3	0xbf6d62df	-0.9272899
4	0xbe7f797f	-0.24948691
5	0xbfb0c4f9	-1.3810111
6	0x3d1a3f1b	0.03765784
7	0xbf7866bc	-0.9703176
8	0x3e1934a3	0.14961486
9	0x3f291796	0.66051614
10	0xbd83ae6a	-0.06429751
11	0xbc5f1d42	-0.013617815
12	0x3d56d94f	0.052453335
13	0xbf9cc543	-1.22477
14	0xbd804374	-0.06262866
15	0xbde9ac3b	-0.114098035
16	0x3f33720c	0.70095897
17	0x3fa37e0a	1.2772839
18	0xbd903c88	-0.070427954
19	0xbd03b611	-0.032156054
20	0x3ec56b8a	0.38558608
21	0xbf39f955	-0.72646075
22	0xbb3aa8b6	-0.0028481907
23	0xbd0038ee	-0.031304292
24	0xbe78dc26	-0.2430273
25	0x3f2817a0	0.6566105
26	0x3d644faf	0.055740055
27	0xbeb31af0	-0.3498149
28	0x3eafd3b8	0.34341216
29	0xbfb256c7	-1.3932732
30	0x3c7f0d7b	0.015567179
31	0xbeb499b7	-0.35273525
32	0x3ddb26cc	0.10700759
33	0x3f4cba31	0.79971606
34	0xbdfa7dd3	-0.1223103
35	0xbe67e2e9	-0.22645153
36	0xbe0dc57a	-0.13844863
37	0xbfa21ebe	-1.2665632
38	0xbe337247	-0.17524062
39	0xbe555e29	-0.208367
40	0x3f00f574	0.5037453
41	0x3f248e74	0.64279866
42	0xbe5d674e	-0.21621439
43	0x3e5b68ec	0.21426743
44	0xbec1621c	-0.37770164
45	0xbf478f5f	-0.7795314
46	0xbe80f3b3	-0.25185928
47	0x3e668742	0.22512534
48	0x4035a7d1	2.8383677
49	0x407c293a	3.9400163
50	0xc00686a1	-2.101967
51	0xbfd97739	-1.6989509
52	0x3b62720d	0.0034552843
53	0xbf252ccf	-0.645215
54	0xbd9e0ebb	-0.07717653
55	0xbed27653	-0.411059
56	0xbe6ae854	-0.22940189
57	0xbdae274a	-0.085035875
58	0xbde37db0	-0.11107957
59	0xbecb509a	-0.39709932
60	0x3e8bb5d1	0.27287152
61	0xbf941b0b	-1.1570753
62	0x3e3e10de	0.18561122
63	0xbef4beb5	-0.47801748
64	0xbea057f0	-0.3131709
65	0x3e8a4b91	0.27010778
66	0x3e340446	0.17579755
67	0xbef3194e	-0.47480243
68	0x3df9119b	0.12161561
69	0xbe82cf7f	-0.25548932
70	0xbdac0fb5	-0.084014334
71	0x3e7ffab3	0.24997978
72	0x3e882835	0.26593176
73	0xbf5672da	-0.83769
74	0xbe13d5bc	-0.14437002
75	0x3e3d2af9	0.18473424
76	0xbe32935b	-0.17439024
77	0xbf06a8b3	-0.52601165
78	0xbdc01175	-0.0937833
79	0xbe094fa8	-0.13409293
80	0x3e47ea79	0.19523038
81	0xbdb7a6f0	-0.08967388
82	0x3b9efebd	0.0048521445
83	0xbe0448f2	-0.12918451
84	0x3e9c4e47	0.3052847
85	0xbf0cb0fc	-0.54957557
86	0xbdbacb44	-0.09120801
87	0x3f3bf2ec	0.73417544
88	0x3ebb4cdd	0.3658208
89	0x3e756aa4	0.23966461
90	0xbb5685bb	-0.0032733518
91	0x3f2d7421	0.67755324
92	0x3f81fa60	1.0154533
93	0xbf00d8ba	-0.503307
94	0xbba7f272	-0.0051253373
95	0xbead47da	-0.3384388
96	0xbe9abf4a	-0.30224067
97	0xbf5b4377	-0.8564982
98	0x3d1bfd56	0.038083397
99	0xbec33971	-0.38129762
100	0xc014d979	-2.3257735
101	0xbf6f0ed8	-0.93382025
102	0x40178d22	2.367989
103	0xbffa8d36	-1.9574344
104	0x3e59881a	0.21243325
105	0xbf4313e5	-0.7620223
106	0x3d10e527	0.035374787
107	0x3e2a9372	0.16657808
108	0xbeb2ebfc	-0.34945667
109	0x3f0bdb76	0.54631746
110	0x3d2c0119	0.041993234
111	0x3e0eda8d	0.13950558
112	0x3e83e594	0.25761092
113	0xbf4df04c	-0.8044479
114	0x3deed9df	0.11662649
115	0xbbe733ae	-0.0070557212
116	0xbf045e46	-0.5170635
117	0x3f231345	0.6370128
118	0x3d52894f	0.05140048
119	0xbc65dbb7	-0.014029435
120	0x3ed53ef2	0.41649586
121	0xbfa2110c	-1.2661452
122	0x3d83400c	0.064087
123	0xbddb0db0	-0.1069597
124	0x3e005b28	0.12534773
125	0x3f2f44fb	0.6846463
126	0xbd32f311	-0.043688837
127	0xbdd84f34	-0.10561982
128	0x3e4b7854	0.1987012
129	0xbf152cb9	-0.58271366
130	0x3d5289d9	0.051400993
131	0xbe0ba071	-0.13635422
132	0x3ea4cf92	0.32189614
133	0x3f147e93	0.58005637
134	0x3d45b940	0.04827237
135	0xbe2c6a6f	-0.16837476
136	0x3f09e34c	0.5386245
137	0xbf44e94c	-0.7691848
138	0xbd1290da	-0.035782672
139	0x3de28ef3	0.11062422
140	0x3f09a9e2	0.53774846
141	0x3f1020b5	0.56299907
142	0x3a8a4828	0.0010550069
143	0x3e2a662c	0.16640538
144	0x3f123595	0.5711301
145	0xbf79e5a2	-0.97616017
146	0xbe332238	-0.17493522
147	0x3e8a9c33	0.27072296
148	0xbd02ee2f	-0.03196543
149	0x3f380970	0.718894
150	0xbe0d7d58	-0.13817346
151	0x3e95ca1b	0.29255757
152	0xbfd6680e	-1.6750505
153	0xbe5a6a22	-0.21329549
154	0xbfab9955	-1.3406168
155	0x4085d343	4.182039
156	0x3f7129c9	0.94204384
157	0x3f0a10ca	0.5393187
158	0x3d8f296b	0.06990322
159	0xbed32db4	-0.41245806
160	0x3f15fa11	0.58584696
161	0xc00b6ab1	-2.178387
162	0xbd06f443	-0.03294779
163	0xbec648d6	-0.38727444
164	0x3f8ee254	1.116282
165	0x3e8cf99b	0.27534184
166	0x3d98434b	0.0743471
167	0x3ef6a78c	0.48174703
168	0x3e7b7e93	0.24560003
169	0xbfc52d18	-1.5404387
170	0xbc093ea3	-0.00837675
171	0x3ebe890a	0.37213928
172	0x3ef00ef6	0.46886414
173	0x3da384dc	0.07984325
174	0x3e089f8c	0.13342112
175	0xbb7a4eb9	-0.0038193895
176	0xbe268c1b	-0.16264383
177	0xbfe5a4e2	-1.7940943
178	0x3e3866cd	0.18007965
179	0x3ce88e50	0.028388172
180	0x3ecdf5ec	0.40226686
181	0x3e481ba3	0.19541793
182	0x3dbff332	0.09372558
183	0x3f368282	0.7129289
184	0xbf1d8509	-0.6153112
185	0xc00a6426	-2.1623626
186	0x3e01024b	0.12598531
187	0x3f42116d	0.7580784
188	0x3eac1234	0.33607638
189	0x3d995e88	0.074887335
190	0xbdd1a778	-0.1023702
191	0xbbe96afe	-0.00712335
192	0xbe89ac3a	-0.2688921
193	0xbfc62d3e	-1.5482557
194	0xbe392e9e	-0.1808419
195	0xbbcf7d85	-0.0063321018
196	0x3de8c3da	0.11365481
197	0xbede0541	-0.43363383
198	0x3e448029	0.19189514
199	0xbeb53df8	-0.3539884
200	0x3e3ccc17	0.18437229
201	0xbfeaab8d	-1.8333603
202	0x3e32ffda	0.17480412
203	0xbecf7251	-0.40516904
204	0x403d52cb	2.9581783
205	0xbebc57a2	-0.3678561
206	0x4026e196	2.6075187
207	0x3f9da03e	1.2314527
208	0x3daac6c8	0.08338696
209	0x3ea02c2b	0.31283697
210	0x3e10a414	0.14125091
211	0x3e2a02c7	0.16602622
212	0xbe1b5bd2	-0.15171745
213	0xbdf1d386	-0.11807923
214	0x3d952f43	0.07284405
215	0x3dc964c0	0.0983367
216	0x3f9067da	1.1281693
217	0x3f33cf26	0.7023796
218	0x3e92dde9	0.2868493
219	0x3f1d9b1a	0.6156479
220	0xbc5eab26	-0.01359061
221	0xbe41502e	-0.18878242
222	0x3e3acb5a	0.18241635
223	0x3f32df86	0.6987232
224	0x3e9a4cae	0.30136627
225	0x3f88ef79	1.0698081
226	0x3bb18cc3	0.0054183914
227	0xbc5bd04c	-0.013416361
228	0x3eb4ee8f	0.35338256
229	0xbf4bc4fd	-0.79597455
230	0xbdc5a6a9	-0.096509285
231	0xbd867fd2	-0.065673485
232	0xbe00c680	-0.12575722
233	0xbfeae748	-1.8351831
234	0x3d50e9a5	0.05100407
235	0xbcb528ef	-0.022114245
236	0x3dc4c611	0.09608091
237	0xbe237942	-0.15964225
238	0x3d3102ce	0.043215565
239	0xbdf6b0c7	-0.12045436
240	0x3dc16853	0.094437264
241	0xbfca9c8c	-1.5829024
242	0x3dbdf38c	0.092749685
243	0xbd9bae15	-0.07601563
244	0xbc54a384	-0.012978438
245	0xbdd8eba6	-0.10591821
246	0x3d225f41	0.039641622
247	0xbdab3ab1	-0.08360804
248	0x3edecda7	0.43516275
249	0xbfb09495	-1.3795344
250	0x3d8d72c8	0.069066584
251	0x3e9e12fa	0.30873853
252	0xbe75cad4	-0.24003154
253	0xbf3abed7	-0.7294745
254	0x3cb79dcc	0.02241411
255	0x3ebbd5a8	0.36686444

fc1.bias f4 [256]
0	0xbf8a7267	-1.0816163
1	0x3f0cab5b	0.5494897
2	0x3eb9ef8d	0.36315575
3	0x3cad858e	0.021181848
4	0xbf7b6ecf	-0.98215955
5	0xbea0f721	-0.31438544
6	0x3e65b7c5	0.22433384
7	0x3e6de277	0.2323092
8	0xbebf9eb9	-0.37425783
9	0x3e478ea3	0.19488005
10	0xbf5ae7a1	-0.8550969
11	0x3f5812ab	0.84403485
12	0xc05ae47a	-3.420195
13	0x3e9e9d78	0.30979514
14	0xbd9b3768	-0.07578927
15	0xbf87645d	-1.0577503
16	0x3ea9227f	0.3303413
17	0xbe60f788	-0.21969426
18	0x3fe18bcc	1.7620788
19	0xbe886d27	-0.26645777
20	0xbe9ffe01	-0.31248477
21	0xbee0ac68	-0.43881536
22	0x3dad4bcb	0.08461722
23	0xbf8c5983	-1.0964817
24	0xbecac464	-0.3960296
25	0xbe3cf593	-0.18453054
26	0xbf1b7c6f	-0.60736746
27	0x3f1622be	0.5864676
28	0xbe1f7553	-0.155721
29	0xbdb8447c	-0.08997437
30	0xbe9f78f6	-0.31146973
31	0xbeefcc69	-0.4683564
32	0xbf9e5f0d	-1.2372757
33	0x3eda222c	0.42604196
34	0xbe195282	-0.1497288
35	0x3e81321b	0.2523354
36	0xbed8e03d	-0.4235858
37	0xbf3bc808	-0.733521
38	0xbf08e442	-0.53473294
39	0x3d039ba5	0.032130856
40	0x3f668262	0.900427
41	0xbe26d25c	-0.16291183
42	0xbf31dab3	-0.69474334
43	0xbedfc7eb	-0.43707213
44	0xbee0f091	-0.43933538
45	0xbf6fe19d	-0.93703634
46	0xbef24a6c	-0.47322404
47	0x3f5b21ef	0.85598654
48	0xbe47aa3d	-0.19498535
49	0x3e4ddb1d	0.20103116
50	0x3f79a311	0.97514445
51	0x3f00b68a	0.5027853
52	0xbea3e833	-0.3201309
53	0xbf029daa	-0.51021826
54	0xbeffa2b1	-0.4992881
55	0xbddb5f3d	-0.10711525
56	0xbf95c8a8	-1.170186
57	0xbfe02f57	-1.7514447
58	0xbf02e08b	-0.51123875
59	0x3f0958db	0.5365121
60	0xbe604274	-0.2190035
61	0x3f03bbcb	0.51458424
62	0xbf82055d	-1.0157887
63	0x3e8256f1	0.25456956
64	0xbe852528	-0.2600491
65	0xbf8165ad	-1.0109154
66	0xbf333b28	-0.7001214
67	0xbf5176b0	-0.8182173
68	0xbf63506d	-0.88794595
69	0xbe853577	-0.26017353
70	0xbfc8b4a4	-1.5680127
71	0xbdd9f6db	-0.10642787
72	0xbea59ab4	-0.32344592
73	0xbfce3abd	-1.6111676
74	0xbf93778f	-1.1520861
75	0xbf4a4418	-0.7901015
76	0xbc6c1b50	-0.014410809
77	0xbf6b7f7d	-0.91991407
78	0x3efcffb1	0.49413827
79	0x3ff201eb	1.8906835
80	0xbe6a4a0e	-0.22879812
81	0xbdf27a39	-0.11839718
82	0xbeb4492d	-0.3521208
83	0xbf6d7f34	-0.9277222
84	0x3ea08777	0.3135335
85	0xbebac04f	-0.36474845
86	0x3f479d22	0.7797414
87	0x4003a580	2.0569763
88	0x3f7d75e9	0.9900804
89	0x3f09b3f4	0.5379021
90	0x3e9327bb	0.2874125
91	0x3fb2d752	1.397196
92	0x3f06cf92	0.5266048
93	0xbf4db7bd	-0.8035849
94	0xbf58a891	-0.8463221
95	0xbf2bf55c	-0.67171264
96	0x3e070831	0.13186719
97	0xbe93c76d	-0.28863087
98	0x3ed7a950	0.42121363
99	0x3ee965c3	0.4558545
100	0xbf00a25a	-0.5024773
101	0xbf3a7091	-0.7282801
102	0xbfd27b6a	-1.6443913
103	0xbf8be8d1	-1.0930425
104	0xbf3835f0	-0.719573
105	0x3dfe5f7e	0.124205574
106	0xbe508b6b	-0.20365684
107	0x3e5e580d	0.21713276
108	0xbe9929d5	-0.29914728
109	0xbf5e2414	-0.867738
110	0xbff205b8	-1.8907995
111	0xbeafec20	-0.34359837
112	0x403664fb	2.8499134
113	0x3e946132	0.28980404
114	0xbf8fb045	-1.1225668
115	0xbe2008c1	-0.1562834
116	0x3d6f8e56	0.05848535
117	0x3e4e3993	0.2013915
118	0xbec6e9bb	-0.38850197
119	0xbe744195	-0.23853143
120	0xbfc2e45c	-1.522594
121	0xbe520f43	-0.20513634
122	0xbe14f69e	-0.14547202
123	0xbf7fc789	-0.9991384
124	0xbda6762a	-0.08128007
125	0x3dd26e5e	0.10274957
126	0x3d75ede6	0.06004133
127	0x3ec53287	0.38515112
128	0x3f344d86	0.7043079
129	0xbdd24109	-0.10266311
130	0xbf5644e6	-0.8369888
131	0x3f0086ae	0.50205505
132	0xbe731c30	-0.23741221
133	0x3eab21c3	0.33424196
134	0xc032b701	-2.7924197
135	0x3f61df16	0.8823103
136	0x3fcf7a82	1.6209261
137	0x3f45f40f	0.7732553
138	0x3d65dba5	0.056117672
139	0xbe52518f	-0.20538925
140	0xbe6c624a	-0.2308437
141	0xbe6d225e	-0.23157641
142	0xbfa58b5d	-1.2933155
143	0x39a9fcfe	0.00032422686
144	0xbec84c5b	-0.39120755
145	0xbe5b7aa0	-0.21433496
146	0x3f26751c	0.65022445
147	0xbf81af8a	-1.0131695
148	0x3f26eb35	0.6520265
149	0xbe39ad24	-0.18132454
150	0x3f0f4a3d	0.55972654
151	0xbe2060c2	-0.1566191
152	0xbfa3e8a8	-1.2805376
153	0xbf7c320f	-0.98513883
154	0x3ed58482	0.41702658
155	0xbef920dd	-0.48657885
156	0x3f83cc59	1.0296737
157	0xbf19ba63	-0.6005003
158	0x3f24f545	0.6443675
159	0xbf57f2e0	-0.8435497
160	0x3e726809	0.23672499
161	0xbf4d4fc2	-0.80199826
162	0x3f08d262	0.5344602
163	0xbeab031a	-0.33400804
164	0x3ead9e99	0.33910063
165	0xbe2e6002	-0.17028812
166	0xbeaf88cf	-0.34284064
167	0xbf06af43	-0.5261118
168	0xbf684aad	-0.90738946
169	0x3df9ff0c	0.122068495
170	0xbed7db5d	-0.42159548
171	0x3c162c45	0.009165828
172	0xbe119122	-0.1421552
173	0xbe9525f3	-0.29130515
174	0x3f8c9082	1.09816
175	0xbf2b0f2b	-0.6682002
176	0x3ec3e7e5	0.3826286
177	0xc009d306	-2.1535048
178	0x3ecd3881	0.40082172
179	0xbf83f7fe	-1.0310056
180	0x3ebfe4eb	0.37479338
181	0x3fb7e1f2	1.4365828
182	0x3eb76747	0.35820982
183	0xbf57af69	-0.8425203
184	0xbf226fce	-0.6345185
185	0x3c85e142	0.016342763
186	0x3cedaceb	0.029013118
187	0xc018bcba	-2.386519
188	0xbf840703	-1.031464
189	0xbe7d7f9a	-0.24755707
190	0xbdc7bb8f	-0.09752571
191	0x3ef3ec38	0.47641158
192	0xbf3ad0b5	-0.7297471
193	0xbf077f25	-0.5292838
194	0x3eac053a	0.33597738
195	0x3f24b1cf	0.64333814
196	0xbe81443a	-0.25247365
197	0xbd941754	-0.07231012
198	0xbf660b9c	-0.89861465
199	0x3f2d6601	0.6773377
200	0xbeff2f86	-0.49840945
201	0x3f6be2d2	0.92142975
202	0xbfffc209	-1.998109
203	0xbe9724d8	-0.29520297
204	0x3e17582b	0.14779727
205	0x3f35a6fb	0.70957917
206	0xbe3b5f6a	-0.18298116
207	0x3e2ebda4	0.1706453
208	0xbea62a5d	-0.32454196
209	0x3e0c0422	0.13673452
210	0xbfd1c0a3	-1.6386913
211	0xbd925cdd	-0.071466185
212	0x3eb52ce4	0.3538581
213	0xbdb32931	-0.08748091
214	0xbf821fd1	-1.016596
215	0xbf3ec0be	-0.7451285
216	0xbf47ea4d	-0.7809189
217	0x3f52c402	0.82330334
218	0x3e0f10c0	0.13971233
219	0xbf440730	-0.7657347
220	0x3dfb04c3	0.122567676
221	0xbf47f429	-0.78106934
222	0x3f28b558	0.6590171
223	0xbf557a17	-0.8338942
224	0xbf800e1c	-1.0004306
225	0x3f2578f1	0.64637667
226	0x3fa24d4e	1.2679842
227	0xbf4f92c5	-0.8108333
228	0xbea91c0e	-0.33029217
229	0xbf03b212	-0.5144359
230	0xbed8b84d	-0.4232811
231	0x3e962908	0.2932818
232	0x3ee79443	0.45230302
233	0xbe6dece0	-0.23234892
234	0xc00b3105	-2.174867
235	0x3d157791	0.03649098
236	0x3f5e51b4	0.8684342
237	0xbefc1ed3	-0.49242267
238	0x3ddf73de	0.10910772
239	0xbecea22a	-0.40358096
240	0xbf7468fc	-0.95472693
241	0xbf4b44b3	-0.794017
242	0x3e61dd47	0.22057067
243	0xbec262e0	-0.3796606
244	0xbf578a34	-0.84195256
245	0xbfb0b02f	-1.3803767
246	0x3e8f0c1e	0.27938932
247	0xbebb291c	-0.365548
248	0xbe341b08	-0.17588437
249	0x3faf3571	1.3688184
250	0xbeeee96e	-0.46662468
251	0x3e7dd62e	0.24788734
252	0x3f79a158	0.97511816
253	0x3e75b67e	0.23995396
254	0xbe24b7d5	-0.16085751
255	0xbfae4b8d	-1.3616806

fc2.weight f4 [128, 256]
0	0x3d15b36f	0.036548074
1	0xbd92032f	-0.071295135
2	0xbe66642b	-0.22499149
3	0xbb3e3305	-0.002902211
4	0xbd5b17eb	-0.053489607
5	0x3aab7156	0.0013080041
6	0xbcfee605	-0.031115541
7	0x3d985451	0.07437957
8	0xbdc67931	-0.09691084
9	0xbe10dec2	-0.14147475
10	0xbc843153	-0.0161368
11	0xbe2ec022	-0.1706548
12	0xbcf0a3cc	-0.02937498
13	0xbe121215	-0.1426471
14	0xbd867fc4	-0.06567338
15	0xbe100c69	-0.14067234
16	0xbd2cf360	-0.042224288
17	0xbdd0f24f	-0.10202467
18	0xbe1c84b6	-0.15285
19	0x3d5057b8	0.050864905
20	0x3bdc73ee	0.006727687
21	0xbdbb5a7e	-0.091481194
22	0xbd9bfd0f	-0.076166265
23	0xbb1ac379	-0.0023615046
24	0xbe2002d4	-0.15626079
25	0x3cefa7af	0.029254762
26	0xbe62cfb1	-0.2214954
27	0xbe103945	-0.14084347
28	0xbbfb4b87	-0.0076689157
29	0xbdef1007	-0.11672979
30	0x3d15ee35	0.036604125
31	0xbcf4407e	-0.029815909
32	0xbe88080b	-0.26568636
33	0x3df42b85	0.11922363
34	0xbdd59277	-0.104283266
35	0x3d3471e5	0.04405393
36	0x3bb32f6a	0.0054682987
37	0x3cc98996	0.024601739
38	0xbc5fe623	-0.013665709
39	0xbd34bc23	-0.044124734
40	0x3d077ee3	0.033079993
41	0xbda00253	-0.07812943
42	0xbd5e6a13	-0.05430038
43	0xbdff58cc	-0.124681085
44	0x3cadabd7	0.021200104
45	0xbd4cb75d	-0.049979556
46	0x3d3fccb0	0.046826065
47	0x3d1af818	0.037834257
48	0xbe865621	-0.26237586
49	0xbdf31a3e	-0.1187024
50	0xbdbfde7d	-0.09368608
51	0xbddcec9f	-0.107873194
52	0xbcb2c78e	-0.02182367
53	0xbdf3e05c	-0.119080275
54	0xbc9f2785	-0.019428024
55	0xbe0d1e52	-0.13781098
56	0xbb7e3608	-0.003878953
57	0xbdad585c	-0.08464119
58	0xbcdd8210	-0.027039558
59	0xbcdcc399	-0.026948737
60	0xbceb6cd5	-0.028738419
61	0xbda9607b	-0.08270355
62	0xbd4c2dad	-0.049848247
63	0x3a1eae1f	0.0006053168
64	0x3cc5323e	0.024071809
65	0x3aa274f7	0.0012394477
66	0xbd0ef0c5	-0.034897584
67	0x3db2359e	0.08701633
68	0xbd8147a3	-0.06312492
69	0xbd245491	-0.04011971
70	0xbca6bcf5	-0.020353774
71	0xbd3116dc	-0.04323469
72	0xbc4d4c61	-0.012530417
73	0x3dbfc68a	0.0936404
74	0xbba0e5c5	-0.004910203
75	0xbe905b67	-0.28194734
76	0xbe30f0fb	-0.17279427
77	0xbd9c0eaf	-0.07619988
78	0x3d193f55	0.037413914
79	0xbc56279d	-0.013070968
80	0x3d585947	0.052819517
81	0xbdc6c117	-0.09704798
82	0xbdacbed9	-0.08434839
83	0x3d90eca3	0.07076385
84	0x3e0e5df6	0.13903031
85	0xbe47e9af	-0.19522737
86	0xbe8043f1	-0.25051835
87	0xbc08eb4d	-0.008356881
88	0xbd89c1b5	-0.067264
89	0xbe141386	-0.14460573
90	0xbd4e30f8	-0.05033967
91	0x3cb01069	0.0214922
92	0xbe88ea22	-0.2674113
93	0xbc048040	-0.008087218
94	0xbdeeaafd	-0.11653707
95	0xbcd7e15b	-0.026352575
96	0xbe318fc3	-0.17339997
97	0xbcb4e182	-0.022080187
98	0xbd5f27e1	-0.05448139
99	0xbd65b4d6	-0.05608066
100	0xbe23cc11	-0.15995814
101	0x3d9efef4	0.07763472
102	0x3d6acf95	0.057326872
103	0xbb974d21	-0.004617349
104	0xbe954722	-0.29155833
105	0xbdb110e8	-0.08645803
106	0x3a95af39	0.0011420018
107	0xbdb44dbe	-0.08803891
108	0x3d981f0f	0.07427799
109	0xbd816a60	-0.063191175
110	0xbe431833	-0.190522
111	0xbdf1209c	-0.11773798
112	0xbd713fab	-0.05889861
113	0x3cc65c08	0.024213806
114	0xbd989859	-0.07450933
115	0xbc8f5154	-0.017494835
116	0x3cba22c6	0.02272166
117	0xbda4693b	-0.080278836
118	0x3c9b8558	0.018984482
119	0xbe4bb9fb	-0.19895165
120	0xbdd36a04	-0.10322955
121	0x3d8f52d1	0.06998218
122	0xbd157f2d	-0.036498237
123	0x3dd9b8dd	0.10630963
124	0x3ca31a20	0.019909918
125	0x3ad1fd9a	0.0016021014
126	0xbc955093	-0.018226897
127	0xbc53502d	-0.012897533
128	0xbd158718	-0.03650579
129	0xbd52e6ad	-0.05148952
130	0xbdc59de9	-0.096492596
131	0xbe2a96b3	-0.1665905
132	0x3cbc8461	0.023012342
133	0xbd37585f	-0.04476201
134	0xbe46abee	-0.19401523
135	0xbd74a568	-0.059728056
136	0xbd894e27	-0.067043595
137	0xbe28e27d	-0.16492648
138	0x3d9f45ac	0.07776961
139	0xbd8c19e1	-0.068408735
140	0x3b96519a	0.0045873644
141	0x3c895a56	0.016766708
142	0xbd9a1d0a	-0.0752507
143	0xbd1ec56c	-0.038762495
144	0xbc8d1b3e	-0.017224904
145	0xbb31a228	-0.002710471
146	0x3db10d9d	0.08645175
147	0xbe747720	-0.23873568
148	0x3dcfbe64	0.10143736
149	0xbe52c52d	-0.20583029
150	0xbdb0db28	-0.08635551
151	0xbc21336f	-0.009838923
152	0xbdff7114	-0.1247274
153	0xbd658ab3	-0.056040477
154	0xbe65faa4	-0.22458893
155	0x3c705b79	0.014670246
156	0x3b303d19	0.0026891886
157	0xbdc4c373	-0.096075915
158	0xbdf5a7f3	-0.119949244
159	0x3da4ea06	0.08052449
160	0xbdc5e3af	-0.09662568
161	0xbd1bb7fe	-0.038017265
162	0x3ae4e63d	0.0017463636
163	0x3d41fbf0	0.047359407
164	0xbd8abcc1	-0.06774283
165	0xbd91e76f	-0.071242206
166	0xbe490a90	-0.19632936
167	0xbe0e2560	-0.13881445
168	0xbe2c8b5d	-0.16850038
169	0x3d0d69b5	0.03452464
170	0xbd11936c	-0.035540983
171	0x3d84e53e	0.06489037
172	0xbd91ecc6	-0.07125239
173	0xbdea8d84	-0.11452773
174	0xbe531c26	-0.20616207
175	0xbdc6d7b2	-0.09709109
176	0xbd20e4ff	-0.039280888
177	0xbd0ea1f1	-0.034822408
178	0xbc614b4f	-0.013750865
179	0xbdd1bd0f	-0.10241138
180	0x3dc2abc0	0.09505415
181	0x3dcd6342	0.100286976
182	0xbc8196a4	-0.015818901
183	0x3d195dc7	0.03744295
184	0xbda15930	-0.07878339
185	0xbe4fc288	-0.20289052
186	0xbe020112	-0.12695721
187	0xbdf66b98	-0.12032241
188	0x3dc554cc	0.09635314
189	0xbe8b0394	-0.27151167
190	0xbc853360	-0.01625985
191	0x3c6edb39	0.014578634
192	0x3c3863c5	0.011254256
193	0xbe881a86	-0.26582736
194	0xbdf25ff6	-0.11834709
195	0x3bd3310b	0.0064450554
196	0xbe145d8b	-0.14488809
197	0x3d831248	0.06399971
198	0xbe54c6cf	-0.20778964
199	0xbdbb479f	-0.0914452
200	0xbb94f9ca	-0.0045463787
201	0xbda162e1	-0.07880188
202	0xbcd17d36	-0.0255724
203	0xbcea6efe	-0.028617378
204	0xbe8f4a0d	-0.27986184
205	0x3d7b61a8	0.06137243
206	0x3dbc3e16	0.091915295
207	0x3c1a88c1	0.009432019
208	0xbd3a1b81	-0.045436386
209	0x3dc836ee	0.09776102
210	0xbe462f03	-0.19353871
211	0xbe177dc6	-0.14794073
212	0xbc27e7dd	-0.010248152
213	0xbd3d6090	-0.046234667
214	0x3c94e66b	0.018176278
215	0xbcc9929a	-0.024606038
216	0xbc0109f1	-0.007875905
217	0xbc900fdd	-0.01758569
218	0xbe38fddd	-0.18065591
219	0xbdc421c5	-0.095767535
220	0x3af18982	0.0018427821
221	0x3d330b43	0.043711912
222	0xbd73c163	-0.0595106
223	0xbd2e1d90	-0.04250866
224	0xbd66a297	-0.0563074
225	0xbd6fc0e2	-0.058533557
226	0xbdb83081	-0.089936264
227	0x3c5f8095	0.013641496
228	0x3d297ad4	0.041376904
229	0x3c0917e4	0.008367512
230	0xbe14a913	-0.14517622
231	0xbdea795b	-0.11448928
232	0xbd56dc36	-0.052456103
233	0x3df01908	0.11723524
234	0x3d687172	0.056748815
235	0xbe36843b	-0.1782388
236	0x3dd807e3	0.10548379
237	0x3d171b7c	0.036891446
238	0xbe4e5098	-0.20147932
239	0xbc918443	-0.017763263
240	0xbcccc4a8	-0.024996117
241	0x3cba1503	0.022715097
242	0xbdbb67c6	-0.091506526
243	0x3d046e75	0.032331903
244	0xbd8463d6	-0.06464355
245	0xbe10d72a	-0.14144579
246	0xbe17af3b	-0.14812939
247	0xbda990e0	-0.08279586
248	0xbb4adb97	-0.003095364
249	0xbd9090b5	-0.07058851
250	0xbe41b581	-0.18916894
251	0xbdbc685e	-0.09199594
252	0xbd3b5c9d	-0.04574262
253	0xbe3c31d6	-0.18378386
254	0x3d3924de	0.045201175
255	0xbe066770	-0.13125396

fc2.bias f4 [128]
0	0xbe14d308	-0.14533627
1	0xbdad1d34	-0.08452836
2	0xbdf42dda	-0.11922808
3	0xbba1a4f0	-0.004932992
4	0xbd84285d	-0.06453011
5	0xbc99536d	-0.018716538
6	0xbefe1717	-0.4962699
7	0xbcf990de	-0.030464586
8	0x3b403958	0.0029331055
9	0xbd5b2b59	-0.053508136
10	0xbd4c2fce	-0.049850278
11	0xbe48523c	-0.1956262
12	0xbce7420b	-0.028229734
13	0xbe027e92	-0.12743595
14	0xbd15b2a4	-0.036547318
15	0xbd004c20	-0.0313226
16	0xbdbc5fa3	-0.09197929
17	0xbd31bbfe	-0.043392174
18	0xbddae8f7	-0.10688966
19	0xbaed4e49	-0.0018104996
20	0xbd5ba9eb	-0.053628843
21	0xbd8bcc60	-0.06826091
22	0xbd8f3b71	-0.069937594
23	0xbd6d4e48	-0.057935983
24	0xbbacf166	-0.0052778004
25	0xbc939709	-0.018016355
26	0xbd613341	-0.05498052
27	0xbdd74d9f	-0.10512852
28	0xbd4a092a	-0.049325146
29	0xbcad00da	-0.02111857
30	0xbb3b99fc	-0.0028625717
31	0xbd2f0052	-0.042724915
32	0xbcb6f02b	-0.022331318
33	0xbc00bcf4	-0.00785755
34	0xbcd6c643	-0.026217585
35	0xbd0ae4bd	-0.033909548
36	0xbe737fa3	-0.23779158
37	0xbd97fae2	-0.07420899
38	0xbd1dd55d	-0.038533557
39	0xbd401232	-0.046892352
40	0x3cbbb3e7	0.022912933
41	0xbc681dc2	-0.014167251
42	0x3cc0c503	0.023531443
43	0x3e0d89a9	0.13822044
44	0xbdae499a	-0.08510132
45	0x3d904e8a	0.0704623
46	0xbd94eaf6	-0.07271378
47	0xbe16e371	-0.147352
48	0xbc85f281	-0.016350986
49	0xbcab523a	-0.020913232
50	0x3ce84b93	0.02835635
51	0x3c02b9f4	0.007978905
52	0xbe4ba935	-0.19888766
53	0xbd058d79	-0.032605622
54	0xbdaa9810	-0.08329785
55	0xbb2c95fc	-0.0026334515
56	0xbd1ab037	-0.037765708
57	0xbdd7feae	-0.10546623
58	0xbdadd61e	-0.08488105
59	0x3cb85829	0.022502976
60	0xbda7fa97	-0.08202093
61	0xbcb57057	-0.022148294
62	0xbd54f44a	-0.051990785
63	0xbd854999	-0.06508178
64	0xbc3efc88	-0.011656888
65	0xbcc98dc7	-0.024603738
66	0x3d357d42	0.04430891
67	0x3dac09cb	0.08400305
68	0xbbab257a	-0.0052229734
69	0x3d50af4f	0.050948437
70	0xbe2dc1d2	-0.16968468
71	0xbc8b2cf7	-0.016989214
72	0xbd854cc0	-0.065087795
73	0xbce3fe2b	-0.027831158
74	0xbdb94e1d	-0.09048102
75	0xbe02a702	-0.12759021
76	0xbd68485e	-0.05670964
77	0x3bab7c08	0.0052332915
78	0xbd49489d	-0.049141515
79	0xbd9e193e	-0.07719658
80	0xbdc0c100	-0.09411812
81	0xbe07aafd	-0.1324882
82	0xbe0336bf	-0.12813853
83	0xbcc80a80	-0.02441907
84	0xbcea112d	-0.028572643
85	0x3b6b5613	0.0035909459
86	0xbbbe0c6f	-0.005799822
87	0xbe3ed909	-0.1863748
88	0xbb35aca5	-0.0027721312
89	0x3fc723df	1.5557822
90	0xbd40e8dd	-0.047097076
91	0x3da0222d	0.078190185
92	0xbda420bf	-0.08014058
93	0xbcf1d6c9	-0.029521363
94	0x3ca7ab07	0.020467294
95	0xbcf4efe4	-0.029899545
96	0xbd0043fb	-0.03131483
97	0xbd1f69e0	-0.03891933
98	0xbdb7023e	-0.089359745
99	0x3d2d1c44	0.042263284
100	0xbccc10f7	-0.024910433
101	0x3e1ac257	0.15113197
102	0xbc8e5a33	-0.017376995
103	0x3d07a2d9	0.033114288
104	0xbd2962d3	-0.04135401
105	0x3c255440	0.010090888
106	0xbda4a703	-0.080396675
107	0xbd8c4568	-0.06849176
108	0xbdb2c99f	-0.087298624
109	0xbd1794e0	-0.037007213
110	0xbc69cdfd	-0.014270303
111	0xbdcf79f9	-0.10130686
112	0xbc8e1068	-0.017341807
113	0x3b82c0dd	0.0039902763
114	0xbd9ecd9d	-0.07754061
115	0xbd108774	-0.03528543
116	0xbd709235	-0.058733184
117	0xbb8158db	-0.00394736
118	0x3f33be1f	0.70211977
119	0xbd504018	-0.050842375
120	0xbe071a34	-0.1319359
121	0xbc96bb2f	-0.018399803
122	0xbd98e229	-0.074650116
123	0xbbcba4f3	-0.006214732
124	0xbd6b51bf	-0.057451006
125	0xbc1c766c	-0.009549718
126	0xbd16547c	-0.036701664
127	0xbc922b88	-0.017843023

fc3.weight f4 [1, 128]
0	0x3c3b55c8	0.011434026
1	0xbce15581	-0.027506592
2	0x3c368d88	0.011142142
3	0x3c2d2564	0.010567997
4	0xbc98e068	-0.018661693
5	0xbbd2e536	-0.0064360155
6	0xbc326676	-0.010888686
7	0x3e0c8dd9	0.13725986
8	0xbc9407f7	-0.018070204
9	0xbb382dfd	-0.0028103583
10	0x3c4399ca	0.011938522
11	0xbc6aec71	-0.014338599
12	0xbc4f1c06	-0.012640959
13	0x3b4aeecd	0.003096509
14	0x3c4e7f95	0.01260366
15	0x3cc8e565	0.024523446
16	0x3cbe834f	0.023255972
17	0xbc869fc4	-0.016433604
18	0xbc95df46	-0.018294942
19	0x3cf4874c	0.02984967
20	0x3b97ea15	0.004636059
21	0xbc39edaa	-0.011348167
22	0xbc830586	-0.015993845
23	0x3c4e0704	0.012574915
24	0xbc711aba	-0.014715845
25	0xbcdec643	-0.027194148
26	0x3c58485a	0.013200844
27	0x3cc2cdb4	0.023779728
28	0x3c727ae5	0.014799808
29	0x3c960b77	0.018316014
30	0x3c947fd9	0.018127369
31	0xba8e78ea	-0.0010869775
32	0x3c5dcfef	0.013538345
33	0x3d51377a	0.051078297
34	0x3cc4d8ae	0.024029102
35	0xbb0d12cd	-0.0021526099
36	0xbbfe73be	-0.0077652624
37	0x3c018c02	0.007906916
38	0x3c534503	0.012894872
39	0x3bf6ee36	0.007535721
40	0x3cf81ace	0.030286219
41	0x3c0235c4	0.007947389
42	0xbcf29200	-0.029610634
43	0xbc3b9f1b	-0.011451508
44	0x3c65f001	0.014034272
45	0x3b91ff8d	0.004455513
46	0x3b80d3e3	0.003931509
47	0x3c868d43	0.01642478
48	0x3b35ea4e	0.0027758065
49	0xbb8a701d	-0.0042247907
50	0x3c985116	0.018593352
51	0xbb5fe092	-0.0034160954
52	0xbc170126	-0.009216582
53	0x3d905376	0.07047169
54	0xbd104eed	-0.03523152
55	0xbc54f4d9	-0.012997829
56	0xbc36c5ba	-0.01115554
57	0xbc1f3e9a	-0.009719515
58	0x3b5d762b	0.0033792357
59	0xbc537858	-0.01290711
60	0x3db5ec05	0.08882908
61	0xbc3b42ec	-0.01142953
62	0xbc885331	-0.016641231
63	0x3c7a8c00	0.015292168
64	0xbc5095cc	-0.012731027
65	0xbb98d115	-0.0046635964
66	0xbcc87f2c	-0.024474703
67	0x3d821eca	0.06353529
68	0x3d11f7d0	0.035636723
69	0x3cd304a3	0.025759047
70	0x3cab330c	0.020898364
71	0xbd1ce341	-0.038302664
72	0x3c598cc3	0.013278189
73	0x3c66ae27	0.014079607
74	0xbcbf81ee	-0.023377385
75	0xbce4983f	-0.027904628
76	0x3cb0ddda	0.021590162
77	0x3cc97ee9	0.024596648
78	0xbcb0a283	-0.021561867
79	0x3ca20b4b	0.019780776
80	0xbc3f1add	-0.01166412
81	0x3c6a14d5	0.014287193
82	0xbc9542f3	-0.0182204
83	0xbc354a37	-0.0110650575
84	0xbae64f34	-0.0017571212
85	0xbbe955d4	-0.007120827
86	0x3d41d1b3	0.047319125
87	0xbcce0512	-0.025148902
88	0x3cec2d49	0.028830187
89	0x3b77487e	0.0037732418
90	0x3d020f97	0.03175315
91	0x3d947ebb	0.072507344
92	0x3cb0db6b	0.021589002
93	0xbc34b6ce	-0.011029912
94	0xbc67da61	-0.014151187
95	0x3be01b89	0.00683922
96	0x3af0a373	0.0018359259
97	0x3d0649d8	0.032785267
98	0x3d85f2c4	0.065404445
99	0x3b25ae19	0.0025280772
100	0xbd4a8bbf	-0.04944968
101	0x3c838601	0.016055109
102	0x3c93e93b	0.018055549
103	0x3df0fb21	0.11766649
104	0xbb632802	-0.0034661298
105	0xbbe8afc1	-0.0071010296
106	0xbb35dcaa	-0.0027749934
107	0x3b13a61d	0.002252943
108	0x3cdcfa12	0.026974712
109	0x3bd520ac	0.006504139
110	0x3e158b37	0.14603887
111	0xbc12b90b	-0.0089552505
112	0xbd06b989	-0.032891784
113	0xba6cecc0	-0.0009037964
114	0x3bcb6740	0.0062073767
115	0x3ce7ffa8	0.028320149
116	0xbc63a11d	-0.013893393
117	0x3d42bf26	0.047545575
118	0xbc10c942	-0.008837046
119	0x3c1721ad	0.0092243375
120	0xbc2ca71d	-0.01053789
121	0x3bfef0d4	0.007780174
122	0xbc6ae039	-0.014335685
123	0x3c8d12b3	0.01722083
124	0x3d6e4122	0.058167584
125	0xbd7b3218	-0.06132707
126	0x3c4d2d72	0.012523042
127	0x3dea3d67	0.11437493
