checkpoint_actor_0.pth (torch_old, 159294 bytes, 6 tensors)

fc1.weight f4 [256, 24]
0	0xbd6466db	-0.055762153
1	0x3d92fb2b	0.07176813
2	0x3bb7cc3d	0.005609064
3	0x3dc30540	0.09522486
4	0x3d675733	0.056479644
5	0x3d9c9de7	0.07647305
6	0x3ca3eee5	0.020011375
7	0x3e034876	0.1282061
8	0xbdd2537d	-0.102698304
9	0x3d56c388	0.052432567
10	0x3d8fa716	0.07014291
11	0x3e2a3282	0.1662083
12	0x3d19268d	0.03739028
13	0x3cb57909	0.02215244
14	0x3da9dbe0	0.08293891
15	0x3e40c548	0.18825257
16	0xbe07f2a5	-0.13276155
17	0x3dc665e7	0.09687405
18	0xbe0f038b	-0.13966195
19	0x3d596146	0.053071283
20	0xbc99117d	-0.018685097
21	0x3e0eb58c	0.13936442
22	0xbdb0cb5b	-0.08632537
23	0x3b48cd4e	0.003063995
24	0xbae7dcc7	-0.0017689698
25	0xbe0010a5	-0.1250635
26	0x3e1e6b6d	0.15470667
27	0xbd50ba68	-0.05095902
28	0x3d293414	0.04130943
29	0xbcdb6447	-0.026781214
30	0x3e3a4730	0.18191218
31	0xbdccbf50	-0.099974275
32	0x3dd1f95e	0.10252641
33	0xbdc5536a	-0.096350506
34	0x3cb88f66	0.022529315
35	0xbe0917a8	-0.1338793
36	0x3ce5e25a	0.028062034
37	0xbdc25dd2	-0.09490551
38	0x3dc987ec	0.09840378
39	0xbe2840f3	-0.16431026
40	0x3d63cd2c	0.05561559
41	0xbd8cc48c	-0.06873426
42	0x3e0583a1	0.13038494
43	0x3d6ec289	0.058290992
44	0x3c51eab7	0.012812308
45	0xbe35249d	-0.17689748
46	0x3e01b175	0.1266535
47	0x3da83c24	0.08214596
48	0x3d1761df	0.03695857
49	0x3de02f81	0.10946561
50	0xbd498210	-0.049196303
51	0x3d910d1d	0.07082579
52	0x3e378086	0.17920122
53	0x3d093219	0.033495042
54	0xbc9d6d7a	-0.019217242
55	0x3d749c75	0.05971952
56	0x3db22ce1	0.08699966
57	0x3deddd5c	0.116144866
58	0x3d319c5a	0.043362
59	0x3dc0ac73	0.09407892
60	0x3d191dbf	0.037381884
61	0x3e11954d	0.1421711
62	0x3d0da0ae	0.034577064
63	0x3d73b7f3	0.0595016
64	0x3c65b344	0.014019791
65	0x3d036811	0.032081667
66	0x3df2ad00	0.118494034
67	0x3cdf395b	0.027249029
68	0xbc500d88	-0.012698539
69	0x3e13e354	0.14442188
70	0x3dc7ecd1	0.09761966
71	0x3deda635	0.11603967
72	0x3d04568f	0.03230911
73	0xbd2dec53	-0.042461704
74	0xbb95f639	-0.004576471
75	0xbe0d6d66	-0.13811263
76	0xbd1aa783	-0.037757408
77	0xbd1bddc8	-0.038053304
78	0x3cd31ef0	0.025771588
79	0xbdbd24cb	-0.09235533
80	0xbde9556b	-0.11393245
81	0xbd07cb96	-0.03315314
82	0xbd6342b0	-0.05548352
83	0xbc0316e1	-0.00800106
84	0x3b85034e	0.004059232
85	0xbe195197	-0.1497253
86	0xbd45c5ab	-0.048284214
87	0x3c6c7049	0.014431068
88	0xbdfb3322	-0.12265612
89	0x3d4032c4	0.046923414
90	0x3bc9f957	0.006163757
91	0xbd727ec8	-0.05920294
92	0xbc57a741	-0.013162435
93	0xbedd26d4	-0.43193686
94	0x3de924eb	0.11383995
95	0xbc71107a	-0.014713401
96	0x3d905fe2	0.07049538
97	0xbd2a837e	-0.041629307
98	0xbc828ba1	-0.01593572
99	0x3d9d806b	0.076905094
100	0xbb843640	-0.0040347874
101	0xbd18e149	-0.037324224
102	0x3c89467c	0.016757242
103	0x3d2a0c52	0.041515656
104	0x3ce60797	0.028079791
105	0xbde40514	-0.11133781
106	0x3db7ac63	0.08968427
107	0xbd0b890b	-0.03406624
108	0xbdc4692a	-0.09590371
109	0x3d7581fe	0.059938423
110	0x3da0463a	0.07825895
111	0x3d075f69	0.033049975
112	0x3c62eafb	0.013849969
113	0xbd00fde4	-0.03149213
114	0xbd86c74b	-0.06580981
115	0x3d0d03d1	0.034427468
116	0xbe3c1f2c	-0.18371266
117	0x3d4b61da	0.049653865
118	0xbd2d9c3e	-0.042385332
119	0x3d5f2b39	0.05448458
120	0xbdae5f96	-0.08514325
121	0x3e266594	0.16249686
122	0x3d0a463c	0.033758387
123	0xbd7c47ab	-0.061591785
124	0xbdd529e3	-0.1040838
125	0xbd4e0cab	-0.05030505
126	0x39e14c42	0.0004297216
127	0xbdd684e6	-0.10474567
128	0xbd50b7e3	-0.050956618
129	0x3d77c13b	0.060487013
130	0xbe185f0f	-0.14880012
131	0xbe60b0a6	-0.21942386
132	0xbd80eb50	-0.06294882
133	0xbd05ff00	-0.03271389
134	0xbe4910aa	-0.19635263
135	0xbe59113b	-0.21197979
136	0xbdacc1cd	-0.08435402
137	0x3e1f6ecd	0.15569611
138	0xbd615bea	-0.055019297
139	0xbdf2fdf3	-0.11864843
140	0xbc1073a4	-0.008816633
141	0x3dd6c8a7	0.1048749
142	0xbd3c46f4	-0.045966104
143	0xbd64386c	-0.05571787
144	0x3e2c540f	0.16828941
145	0x3d483bdd	0.048885215
146	0xbca45310	-0.020059139
147	0x3c3df061	0.011592955
148	0x3e81b25b	0.25331387
149	0x3da1b3dd	0.07895634
150	0xbd56ca9c	-0.052439317
151	0xbd672398	-0.05643043
152	0x3e72593a	0.2366685
153	0x3d86b6b7	0.06577819
154	0xbc1716e0	-0.009221762
155	0x3d7334b1	0.059376422
156	0x3d17fef5	0.03710838
157	0x3e778d07	0.24174891
158	0xbc22b130	-0.00992994
159	0x3dfc4175	0.123171724
160	0x3e14d076	0.14532647
161	0x3e093811	0.13400294
162	0xbcc90051	-0.024536284
163	0xbd80b4ae	-0.06284462
164	0x3d64764f	0.05577689
165	0x3e9a91c0	0.30189323
166	0x3b5d28d3	0.0033746257
167	0xbd575a7a	-0.05257652
168	0xbcc2ba1a	-0.02377038
169	0xbdc6830c	-0.09692964
170	0xbd8c8de6	-0.068630025
171	0x3df59610	0.11991513
172	0x3d247242	0.040148027
173	0x3e4cf1d5	0.20014127
174	0x3bac6f2a	0.005262275
175	0x3d3b82ef	0.045779165
176	0xbce0efec	-0.027458154
177	0xbd4cad40	-0.04996991
178	0x3d271a55	0.040796597
179	0xbd5dcf44	-0.054152742
180	0x3dc7248a	0.09723766
181	0x3d8c91b8	0.06863731
182	0xbcab2325	-0.020890782
183	0xbd73aa69	-0.059488688
184	0x3a9fa16a	0.0012178842
185	0xbe15bfcd	-0.14623947
186	0xbda33af4	-0.07970229
187	0x3d8d1677	0.068890505
188	0x3dddcc4e	0.10829984
189	0x3d781032	0.06056232
190	0xbcdc72d1	-0.026910217
191	0xbd05f0a1	-0.032700185
192	0x3dfecd26	0.12441473
193	0xbe8a54c1	-0.27017787
194	0xbc463d62	-0.012099596
195	0xbd186a8c	-0.037210986
196	0xbd74cbe5	-0.05976476
197	0x3ca07675	0.019587735
198	0xbd16d529	-0.03682438
199	0xbd8266ca	-0.06367262
200	0x3db6e8d0	0.08931124
201	0xbe57b424	-0.21064812
202	0x3dc56eae	0.09640251
203	0x3e2cbe67	0.16869508
204	0x3d28705f	0.04112279
205	0xbd123957	-0.035699215
206	0x3b9211d0	0.00445769
207	0x3e29bb03	0.16575246
208	0x3d8ebbd3	0.069694184
209	0xbe1ac5f1	-0.15114571
210	0x3df229ed	0.11824403
211	0x3e2abe7e	0.1667423
212	0x3e036021	0.12829639
213	0xbdd6e100	-0.10492134
214	0x3dfa13db	0.122108184
215	0x3dbefbae	0.09325348
216	0x3d641ae3	0.055689704
217	0xbca86f55	-0.0205609
218	0xbd9aeb82	-0.07564451
219	0x3cc59480	0.024118662
220	0xbe259ad2	-0.1617234
221	0x3afe7b40	0.0019415393
222	0xbdb3c28d	-0.08777342
223	0xbd761064	-0.060074225
224	0x3d84ec9b	0.064904414
225	0xbd139b8e	-0.03603702
226	0x3d397f3b	0.045287352
227	0xbdfaa26b	-0.1223801
228	0xbe48ec5f	-0.19621418
229	0xbe029f68	-0.12756121
230	0xbc6404cc	-0.013917159
231	0xbe24ecfa	-0.16106024
232	0x3e1163f7	0.1419829
233	0x3d170d57	0.036877956
234	0x3cd67f24	0.026183672
235	0xbd87b0e1	-0.06625534
236	0xbe50ccef	-0.20390676
237	0xbe1dd191	-0.15411974
238	0x3d9629d3	0.07332196
239	0xbd6a8399	-0.057254408
240	0x3d3d49d7	0.046212997
241	0xbd8e9294	-0.06961551
242	0x3d8f49ad	0.069964744
243	0x3ca347ca	0.019931693
244	0x3d06b487	0.032887008
245	0x3df8115e	0.121126875
246	0xbd3326ee	-0.043738298
247	0x3c48413f	0.012222587
248	0x3d3c90c5	0.0460365
249	0xbd245769	-0.040122423
250	0x3d469b35	0.04848786
251	0x3d6eb5b3	0.05827875
252	0x3d8acbaf	0.06777131
253	0x3e4f590a	0.2024881
254	0x3d97dd61	0.074152716
255	0x3cb80aa3	0.02246601

fc1.bias f4 [256]
0	0x3bb662a6	0.005565959
1	0x3d2b89a9	0.04187933
2	0x3ccc42f5	0.024934271
3	0x3e6142df	0.21998166
4	0x3dc6ba94	0.09703556
5	0xbe0a5d88	-0.13512242
6	0xbe050b18	-0.12992513
7	0x3e90b4b8	0.28262877
8	0xbdbd1f67	-0.09234505
9	0x3d98c4ff	0.07459449
10	0xbc9ae21d	-0.018906647
11	0xbd138d7b	-0.0360236
12	0xbcd423f5	-0.025896052
13	0xbe92c7cb	-0.28668055
14	0x3ca60bb8	0.02026926
15	0xbe17cd10	-0.14824319
16	0x3cf900cf	0.030395893
17	0xbdfbfd59	-0.123041816
18	0xbe8076ca	-0.2509063
19	0x3c87eb79	0.016591774
20	0x3e453764	0.19259411
21	0x3e3f783a	0.18698207
22	0xbd568b13	-0.052378725
23	0x3d3cc109	0.04608253
24	0x3daf5ce7	0.085626416
25	0x3d9558d0	0.0729233
26	0xbdf18150	-0.117922425
27	0xbcda01db	-0.026612213
28	0xbe2453a6	-0.16047534
29	0xbe09408f	-0.13403533
30	0x3d9e294c	0.077227205
31	0xbdb3aaa2	-0.0877278
32	0x3e815e2a	0.25267154
33	0x3e05b82f	0.13058542
34	0xbddd7c54	-0.10814729
35	0xbe295a43	-0.16538338
36	0x3e06e87f	0.13174628
37	0xbe7ae863	-0.24502711
38	0xbe3c2e17	-0.18376957
39	0xbe0014f4	-0.12507993
40	0x3e0ac82e	0.13552925
41	0x3cd7d915	0.02634863
42	0x3cb3b9be	0.021939155
43	0xbdd7c051	-0.10534728
44	0xbe20427b	-0.1565036
45	0x3d9be926	0.07612829
46	0x3e16a93b	0.14712994
47	0xbe4971dd	-0.19672342
48	0xbca84849	-0.02054228
49	0xbe4398d0	-0.19101262
50	0x3de60981	0.112322815
51	0xbd1b81f6	-0.037965737
52	0x3dcf0c9a	0.101098254
53	0xbd8277a3	-0.06370475
54	0x3e0236c8	0.1271621
55	0xbdc90467	-0.09815293
56	0xbe0da7a1	-0.13833477
57	0x3e976af8	0.29573798
58	0xbda48f61	-0.0803516
59	0x3d45244d	0.048130322
60	0x3e2a6c7d	0.16642947
61	0xbdf42a28	-0.11922103
62	0xbe6c7c82	-0.23094371
63	0x3e860832	0.26178128
64	0xbdc8bf1c	-0.09802076
65	0xbd484bfa	-0.048900582
66	0x3e329ab9	0.17441835
67	0x3e72831b	0.23682825
68	0xbe26100c	-0.16217059
69	0xbd82ba3b	-0.06383177
70	0xbdf9cb67	-0.12196999
71	0x3e39fec0	0.18163586
72	0x3cf0ecbe	0.029409762
73	0xbe00242f	-0.12513803
74	0x3db43e7f	0.08800983
75	0xbea0ecb4	-0.3143059
76	0xbc62fbab	-0.013853948
77	0x3e96ba36	0.29438943
78	0x3e5f32fa	0.2179679
79	0xbdd4c130	-0.1038841
80	0x3e4a464c	0.19753379
81	0x3d4fe30e	0.050753646
82	0x3d8d7c96	0.069085285
83	0x3d6d4de5	0.057935614
84	0x3dacbc22	0.08434321
85	0xbd0da5d5	-0.034581978
86	0x3df525ad	0.11970077
87	0x3e1f84d1	0.15578009
88	0xbe28266e	-0.1642091
89	0xbd9174e0	-0.0710237
90	0xbc685707	-0.014180905
91	0xbe476d52	-0.19475296
92	0xbe216b17	-0.15763508
93	0xbe393425	-0.18086298
94	0x3dab12c3	0.08353188
95	0x3dacca78	0.08437055
96	0xbdc46e6d	-0.095913745
97	0x3d04a7c8	0.03238657
98	0xbdcb9a7c	-0.09941575
99	0xbe23818e	-0.1596739
100	0x3d30c4fc	0.04315661
101	0xbc582f98	-0.013194941
102	0x3ddd40f3	0.10803404
103	0x3dd8edea	0.105922535
104	0xbdddac41	-0.108238705
105	0xbd8828cc	-0.066484064
106	0xbd271e5f	-0.04080045
107	0xbdad78b5	-0.08470289
108	0x3d776a2b	0.060403984
109	0x3e26ad99	0.1627716
110	0x3c962377	0.018327458
111	0xbe2d1151	-0.16901137
112	0x3d84e543	0.06489041
113	0xbe6ddad5	-0.23228009
114	0x3da74f03	0.08169367
115	0x3d5f875a	0.05457244
116	0x3de56c44	0.11202291
117	0xbe4f3ec4	-0.20238787
118	0xbc581e8b	-0.013190876
119	0x3d84fecd	0.06493912
120	0x3e81f3d5	0.25381342
121	0xbdabd268	-0.08389741
122	0x3e260501	0.16212846
123	0xbd4329e5	-0.047647376
124	0xbe3f45be	-0.18678948
125	0x3e980d3d	0.296976
126	0x3e55f0bf	0.20892619
127	0x3d5dc8c8	0.054146558
128	0x3c596c2b	0.013270418
129	0xbe1eb230	-0.1549766
130	0x3e53ccd1	0.206836
131	0x3eb94044	0.36181843
132	0xbdf04a1b	-0.117328845
133	0xbdcc8836	-0.09986918
134	0xbe4e3a69	-0.20139469
135	0xbddda6cd	-0.1082283
136	0xba5a4da1	-0.00083276076
137	0xbde8defe	-0.113706574
138	0xbd566f7b	-0.05235241
139	0x3dd668ed	0.10469232
140	0x3e3e5ac3	0.1858931
141	0xbd4803fc	-0.048831925
142	0x3de0e306	0.10980801
143	0x3e5103c6	0.20411596
144	0xbde6f49a	-0.11277123
145	0x3d47ba04	0.048761383
146	0x3d9792ff	0.07401084
147	0x3c8aa4ac	0.016924225
148	0xbdf4efd8	-0.11959809
149	0x3e623b03	0.22092824
150	0xb9cbfc1b	-0.0003890701
151	0xbe2fcd5d	-0.17168184
152	0xbdb904a8	-0.09034091
153	0xbde6bb5b	-0.11266204
154	0x3dd7f5c4	0.10544923
155	0xbe0aac8f	-0.13542388
156	0xbd4d9932	-0.050194927
157	0x3db88385	0.0900946
158	0xbde99b52	-0.11406578
159	0xbd05749a	-0.032581903
160	0x3e37a56c	0.17934197
161	0xbdc13ad8	-0.09435052
162	0xbd8b683e	-0.06806992
163	0x3db22f39	0.08700413
164	0xbe12d7a5	-0.14340074
165	0x3ddc2b76	0.10750477
166	0x3b3fb551	0.002925236
167	0xbe2eb077	-0.17059503
168	0xbcfeec61	-0.031118574
169	0x3e92339f	0.2855501
170	0x3e135bd4	0.14390498
171	0xbe6a7075	-0.22894461
172	0xbd4254f9	-0.047444317
173	0xbe36234f	-0.17786907
174	0x3d9fe306	0.07806973
175	0x3dcd40cd	0.100221254
176	0x3e636ccf	0.22209476
177	0xbe10b4db	-0.14131491
178	0x3e60cdfa	0.21953574
179	0x3d442858	0.047890037
180	0xbd318e52	-0.043348618
181	0x3d7181dd	0.058961738
182	0x3d92e4ec	0.0717257
183	0xbe1d24f7	-0.15346132
184	0x3dca6c3d	0.09883926
185	0x3e7582d4	0.23975688
186	0x3d88c17a	0.06677528
187	0x3e252aef	0.16129659
188	0x3e392a63	0.18082576
189	0x3e0f0d9a	0.13970032
190	0xbd76a94e	-0.060220055
191	0xbd9c604b	-0.07635554
192	0xbc0c3dc7	-0.008559651
193	0x3e397935	0.18112643
194	0xbcfc3f29	-0.030791836
195	0xbe210e96	-0.1572822
196	0x3c9f7c4a	0.019468445
197	0x3d14fbf0	0.03637308
198	0xbe39fbe2	-0.18162492
199	0xbdac507f	-0.08413791
200	0x3dfda7dc	0.12385532
201	0x3e10ee94	0.1415351
202	0xbd9305e3	-0.07178857
203	0x3dcb47c3	0.09925797
204	0xbe2eb010	-0.1705935
205	0xbd17274c	-0.03690271
206	0x3e9e9865	0.30975643
207	0x3dd3a040	0.103333
208	0xbe34aaaa	-0.17643228
209	0x3dc4500c	0.0958558
210	0xbe2855f9	-0.16439046
211	0x3e4cdcac	0.20006055
212	0x3e948a36	0.29011697
213	0x3e81bf6f	0.25341365
214	0x3cd3d0c3	0.025856381
215	0x3dd76efa	0.10519214
216	0x3cf4421b	0.029816678
217	0x3e73e768	0.23818743
218	0xbe9a0dd3	-0.30088672
219	0xbe3dba50	-0.18528104
220	0xbe424566	-0.18971786
221	0x3e16e4ba	0.1473569
222	0xbe03c411	-0.12867762
223	0xbe01aa1e	-0.12662551
224	0x3e26e0ae	0.16296646
225	0x3d73286e	0.05936473
226	0xbd101625	-0.03517737
227	0x3bc54b13	0.0060209124
228	0xbe0a0fb6	-0.13482556
229	0x3d2ccf11	0.04218966
230	0xbdd031fc	-0.10165784
231	0xbe3062c8	-0.17225182
232	0x3c898e67	0.016791536
233	0xbbfbaa6e	-0.007680229
234	0xbdf17a31	-0.11790884
235	0xbd895889	-0.0670634
236	0x3e2e6cc4	0.17033678
237	0xbe10cc67	-0.14140473
238	0x3c99507a	0.018715132
239	0x3e92301f	0.28552338
240	0xbe1676d0	-0.14693761
241	0x3e50c9b3	0.20389442
242	0x3ddff9cd	0.109363176
243	0x3e1cfd0e	0.15330908
244	0x3e1e2a43	0.15445809
245	0xbe16b43c	-0.14717191
246	0x3e4a1eb9	0.19738282
247	0xbdf503ab	-0.1196359
248	0xbebb8145	-0.36622062
249	0xbea11530	-0.31461477
250	0xbdc760f1	-0.09735287
251	0xba389d92	-0.0007042523
252	0x3d1ead5d	0.03873955
253	0xbe1eefdc	-0.15521187
254	0x3ddc0669	0.1074341
255	0xbeb59c9b	-0.35471043

fc2.weight f4 [128, 256]
0	0xbd149c6c	-0.036281988
1	0x3de0fdb9	0.10985894
2	0x3b8e5fff	0.0043449397
3	0x3bfa8e40	0.007646352
4	0xbdcf94ab	-0.10135778
5	0x3de260ad	0.11053596
6	0xbe6dc8a8	-0.23221076
7	0x3d1c7dae	0.038205795
8	0x3df2b139	0.11850209
9	0xbd8f4ca0	-0.06997037
10	0x3e42e2f9	0.19031896
11	0x3d4aef93	0.049544882
12	0x3dd26376	0.10272877
13	0xbdffe750	-0.12495291
14	0x3d3ea6e6	0.046545886
15	0x3c89648c	0.016771577
16	0x3d9aa1ec	0.075504154
17	0xbca487c1	-0.020084264
18	0x3b07c8b0	0.0020718984
19	0xbde69b29	-0.11260063
20	0xbdd951e1	-0.1061132
21	0xbd393751	-0.04521877
22	0xbb142fb5	-0.0022611443
23	0x3bb695b5	0.0055720457
24	0xbda64e82	-0.08120443
25	0xbd4d6d72	-0.050153203
26	0x3d52fa25	0.051508088
27	0xbc217c9f	-0.009856372
28	0xbec27b0b	-0.379845
29	0x3d25b917	0.04045972
30	0x3d97fe3b	0.074215375
31	0xbc7aefd5	-0.0153159695
32	0x3d0b51e3	0.03401364
33	0x3d6c55e1	0.057699088
34	0xbd534c37	-0.051586356
35	0x3d4bccfe	0.049756043
36	0x3e306f37	0.17229925
37	0xbc7c3052	-0.01539238
38	0x3c74fc29	0.014952698
39	0x3dbda5bb	0.09260126
40	0x3d72de16	0.05929383
41	0xbcdce4fd	-0.026964659
42	0x3cb4aac0	0.022054076
43	0x3d8b4cd5	0.06801764
44	0xbe0465f7	-0.12929522
45	0xbd938d04	-0.07204631
46	0x3bf7ec5d	0.0075660185
47	0xbd8ef877	-0.06980985
48	0x3da24e52	0.07925095
49	0x3e22f04e	0.15911981
50	0xbd8f5d45	-0.070002116
51	0x3d8dca16	0.069233105
52	0x3dbef043	0.0932317
53	0x3e16557f	0.14681052
54	0x3c889d98	0.016676709
55	0x3e70f40d	0.23530598
56	0xbd06ec83	-0.0329404
57	0x3dfe9ef4	0.12432662
58	0xbdfff8f9	-0.1249866
59	0xbd07b61b	-0.033132654
60	0xbe12dd0c	-0.14342135
61	0x3da28092	0.07934679
62	0xbe80477e	-0.25054544
63	0x3e0d53fa	0.13801566
64	0x3d14f0d3	0.03636248
65	0xbcf176cc	-0.029475592
66	0xbbfa9e77	-0.007648285
67	0x3d2618ba	0.040550925
68	0xbe893644	-0.26799214
69	0xbb250ae3	-0.002518349
70	0x3da8fdcc	0.08251533
71	0x3d735791	0.05940968
72	0x3cdb480c	0.026767753
73	0xbcc6ef7e	-0.02428412
74	0x3dff1a7b	0.124562226
75	0xbcdfbd13	-0.027311837
76	0x3da773ca	0.08176382
77	0x3d9e67fa	0.07734676
78	0x3d2f8dba	0.04285977
79	0xbdd04750	-0.10169852
80	0xbd6ca7d2	-0.057777233
81	0xbce368fa	-0.027760018
82	0xbde047c5	-0.10951189
83	0x3dcdfc1d	0.100578524
84	0xbcf1758e	-0.029475
85	0x3c8c715b	0.017143896
86	0x3c64cbc6	0.013964599
87	0xbd84444d	-0.0645834
88	0x3e054946	0.13016233
89	0xbc9386cc	-0.018008612
90	0xbd4da20c	-0.050203368
91	0xbe03d547	-0.12874328
92	0x3e15175d	0.14559694
93	0x3d9f8e9e	0.07790874
94	0xbdadc55d	-0.0848491
95	0xbe08d1a5	-0.13361223
96	0xbb8fc285	-0.004387202
97	0x38878488	6.4619875e-05
98	0xbe6e3f24	-0.23266274
99	0xbd9ec742	-0.07752849
100	0x3d3244a8	0.043522507
101	0x3d833adc	0.06407711
102	0x3d9378dd	0.07200787
103	0x3e831028	0.25598264
104	0xbe04ffab	-0.12988155
105	0xbe231b08	-0.1592828
106	0xbbeca356	-0.0072216196
107	0x3d8d09eb	0.06886657
108	0xbd94cb80	-0.07265377
109	0x3baec47c	0.0053334814
110	0x3ce11626	0.027476382
111	0xbdab38d3	-0.08360448
112	0x3c8eaecf	0.01741734
113	0xbdd95dcb	-0.10613593
114	0x3dc3aa71	0.095539935
115	0xbda430ff	-0.08017158
116	0x3dba0035	0.09082071
117	0xbd804e96	-0.06264989
118	0x3d82bb98	0.06383437
119	0xbd52bd3f	-0.05145001
120	0x3d67f595	0.05663069
121	0xbd552d04	-0.052044883
122	0x3d729598	0.059224695
123	0x3ca14f53	0.019691145
124	0x3bdc0d5c	0.0067154597
125	0x3d8d36b9	0.06895203
126	0x3d975b02	0.07390405
127	0xbd6723fa	-0.056430794
128	0x3bd38abf	0.006455749
129	0x3e106a53	0.1410306
130	0x3d9a540f	0.07535564
131	0xbcc8cceb	-0.024511775
132	0xbe34775e	-0.1762366
133	0xbd2b192a	-0.041772045
134	0x3d472c83	0.048626434
135	0x3d753009	0.059860263
136	0xbd0f37ed	-0.034965444
137	0xbce50da1	-0.0279606
138	0x3da71f50	0.08160269
139	0xbc8bee09	-0.017081277
140	0x3a07744d	0.00051671715
141	0x3e067cc8	0.13133538
142	0x3d795863	0.060875308
143	0xbd2155f2	-0.039388604
144	0x3ae88bc7	0.0017741852
145	0xbc26a18e	-0.010170354
146	0x3d3ff69a	0.046866037
147	0x3e3c91b0	0.1841495
148	0xbe4617d8	-0.19345033
149	0x3dbd5642	0.09244968
150	0x3ca1ef59	0.01976745
151	0xbd88edcc	-0.06685981
152	0x3e1cf5bd	0.15328117
153	0x3d6ce4fb	0.05783556
154	0x3e0d5f91	0.13805987
155	0xbd675d59	-0.056485508
156	0xbd828c65	-0.063744344
157	0xbc2d96e4	-0.010595057
158	0xbdf61cd3	-0.120172165
159	0x3dc2a30b	0.09503754
160	0xbdd37909	-0.1032582
161	0xbcac413e	-0.021027204
162	0xbdf20bf8	-0.11818689
163	0x3e0c2f97	0.13690029
164	0xbd1d0b81	-0.03834105
165	0x3e1d4476	0.15358147
166	0x3b8dac44	0.004323514
167	0x3c31b73b	0.010846908
168	0x3deb8105	0.11499218
169	0x3d81beaf	0.06335198
170	0xbd626c89	-0.05527929
171	0x3c86f8c7	0.016476048
172	0x3d69b4af	0.05705708
173	0xbca5074c	-0.020145081
174	0x3da5b6a4	0.080914766
175	0x3d55c1ac	0.052186653
176	0xbdbbf552	-0.091776505
177	0x3c97f6dc	0.018550329
178	0x3c968369	0.018373208
179	0x3d5280ab	0.05139224
180	0x3ddf35cf	0.10898935
181	0x3d6698bc	0.056298003
182	0xbbb875bd	-0.00562927
183	0xbdf6cc97	-0.12050741
184	0x3e69f9c4	0.22849184
185	0xbd460066	-0.048340224
186	0x3e6ae840	0.22940159
187	0x3dc2ccd6	0.095117256
188	0x3c34e23c	0.011040267
189	0x3d902f64	0.07040289
190	0xbe36dc6c	-0.17857522
191	0xbd8dfaf9	-0.06932635
192	0xbcd897f8	-0.026439652
193	0x3d563897	0.052300062
194	0x3d089c20	0.033352017
195	0x3ced84eb	0.028994044
196	0xbd9877cc	-0.074447244
197	0x3e18af83	0.14910702
198	0xbd25b278	-0.040453404
199	0xbcd05dea	-0.025435407
200	0x3d1b72a9	0.037951145
201	0x3c797872	0.01522647
202	0x3d9abcb0	0.075555205
203	0xbdf32cc3	-0.11873772
204	0x3df8d493	0.1214992
205	0xbe558f4c	-0.20855445
206	0xbb1cb1a1	-0.0023909586
207	0x3d6c4701	0.057684902
208	0xbd4ce8b5	-0.050026614
209	0xbdbe3d9a	-0.09289093
210	0x3db15e60	0.08660579
211	0x3e3602da	0.17774525
212	0xbc29558f	-0.01033534
213	0x3d9684b6	0.07349531
214	0xbd35b8c7	-0.04436567
215	0x3d6b33d6	0.05742248
216	0xbd66a6c1	-0.056311373
217	0x3d46ff15	0.04858311
218	0x3d2378a6	0.03990998
219	0x3dc3b84e	0.09556638
220	0xbd3921e3	-0.045198333
221	0xbd69ac70	-0.057049215
222	0x3da9efa0	0.08297658
223	0xba0efb80	-0.00054543465
224	0x3ca9c701	0.020724775
225	0xbda78325	-0.08179311
226	0x3c50a024	0.012733493
227	0x3b12c225	0.0022393551
228	0x3e56178b	0.20907418
229	0xbda77a3b	-0.081776105
230	0xbd89cf9e	-0.06729053
231	0x3ca5f938	0.020260438
232	0x3dbb8dd1	0.09157909
233	0x3d8d7c06	0.06908421
234	0x3e240698	0.1601814
235	0x3dd5a488	0.104317725
236	0x3d429de2	0.04751385
237	0x3e5799d9	0.21054782
238	0x3e271866	0.16317901
239	0x3cc1702c	0.023613058
240	0xbcc096bf	-0.023509381
241	0x3ae2cf63	0.0017304238
242	0xbdf14521	-0.117807634
243	0xbc4e01ab	-0.01257364
244	0x3dd96982	0.10615827
245	0xbd9b9019	-0.07595844
246	0x3d91c9b2	0.071185485
247	0x3d5884f9	0.052861188
248	0xbd81bd8e	-0.06334983
249	0xbd530ba0	-0.05152476
250	0xbc559c9f	-0.01303783
251	0x3c192598	0.009347342
252	0xbcfa7c42	-0.030576829
253	0x3d9e3e7f	0.07726764
254	0xbcc56d88	-0.02410008
255	0xbe6ec4c8	-0.23317254

fc2.bias f4 [128]
0	0x3d782341	0.060580496
1	0x3d4ee65e	0.050512664
2	0xbc624937	-0.013811401
3	0x3e1d7f13	0.15380506
4	0xbdcb6d1f	-0.099329226
5	0x3da0b8f6	0.078477785
6	0x3d975f7e	0.073912606
7	0x3e1896ff	0.1490135
8	0x3d98fbdc	0.07469913
9	0xbe066a9c	-0.13126606
10	0xbd2a50ed	-0.041581083
11	0xbcaa5aa1	-0.020795168
12	0xbd9a9b78	-0.075491846
13	0x3cbb6f15	0.022880116
14	0x3d3c8625	0.046026368
15	0xbde6ddcf	-0.112727754
16	0x3d6ef0b2	0.058335014
17	0x3d12d3b1	0.035846416
18	0x3e29b75e	0.16573855
19	0xbe0e9762	-0.13924935
20	0xbd338bdf	-0.043834563
21	0x3db131de	0.086520895
22	0x3e0b874d	0.13625832
23	0xbda44d9e	-0.08022617
24	0x3b2b29a9	0.002611736
25	0xbd82715c	-0.06369278
26	0x3c8b2515	0.016985456
27	0xbce68a9c	-0.028142266
28	0x3ad097d5	0.001591439
29	0x3df207b4	0.118178755
30	0x3d8d5195	0.06900326
31	0xbd3f2439	-0.046665404
32	0x3e03bdef	0.12865423
33	0xbd762ffa	-0.060104348
34	0xbca1f660	-0.019770801
35	0x3e13cad7	0.14432846
36	0xbdb68889	-0.08912761
37	0xbd626855	-0.05527528
38	0xbd07b1f6	-0.0331287
39	0x3cbdbc7e	0.02316117
40	0x3cd54948	0.02603592
41	0x3dea3500	0.1143589
42	0x3d81904c	0.063263506
43	0x3e05de4b	0.1307308
44	0xbd5c5096	-0.05378779
45	0x3dd9045e	0.10596536
46	0x3cabf081	0.020988705
47	0x3b8e2fed	0.0043392093
48	0xbdb25182	-0.08706953
49	0x3d31830c	0.043337867
50	0xbd08d5e0	-0.033407092
51	0x3d1f30a9	0.038864765
52	0x3c8112ba	0.015756
53	0x3c67566b	0.014119725
54	0xbdbb6ee5	-0.09152011
55	0x3dd3c4de	0.10340284
56	0xbdbbeeed	-0.09176431
57	0x3d0b325c	0.033983573
58	0xbdce1e84	-0.10064414
59	0xbd7a2c7a	-0.061077572
60	0x3d95436f	0.072882526
61	0x3c76f6c5	0.015073483
62	0xbd113dba	-0.035459258
63	0x3dab2b49	0.08357865
64	0x3d35f56c	0.044423506
65	0xbcae1a54	-0.021252789
66	0x3d6679e8	0.056268603
67	0xbce169c8	-0.02751626
68	0xbe48ad11	-0.1959727
69	0xbc344f2c	-0.011005204
70	0x3db2b509	0.08725936
71	0x3d8b4a0c	0.06801233
72	0x3d8f66f9	0.07002062
73	0x3db9466b	0.09046634
74	0x3df99182	0.121859565
75	0xbdb8b215	-0.090183415
76	0x3cad03f0	0.021120042
77	0xba921a26	-0.0011146709
78	0x3b75209d	0.0037403472
79	0x3d811b52	0.06304039
80	0x3d90e5f1	0.07075108
81	0xb9f1750f	-0.00046054317
82	0x3cda6b4c	0.026662491
83	0xbd3e1316	-0.04640492
84	0x3d0bcfea	0.03413383
85	0x3df0750c	0.11741075
86	0x3c2c4cbd	0.010516343
87	0xbd1c5385	-0.038165588
88	0x3ddda2fd	0.10822103
89	0x3dd04c33	0.10170784
90	0xbccd642d	-0.025072182
91	0xbcebe7f9	-0.028797137
92	0xbdee679e	-0.11640857
93	0xbcaf94fd	-0.021433348
94	0x3d01eb65	0.03171863
95	0x3c41dfbd	0.0118331285
96	0xbdcb61ec	-0.099307865
97	0x3e167369	0.14692463
98	0x3c49d6d7	0.012319288
99	0x3e69ec5e	0.22844073
100	0xbd54be14	-0.051939085
101	0xbda9daaa	-0.0829366
102	0x3d9cc2d1	0.07654346
103	0x3da823ab	0.08209928
104	0xbd8e67df	-0.069534056
105	0xbd6f4679	-0.058416817
106	0xbcbdb141	-0.02315581
107	0x3dc9acbc	0.098473996
108	0x3de23d31	0.110468276
109	0x3b554791	0.0032543878
110	0x3cb5c7d7	0.022190018
111	0x3d88c654	0.06678453
112	0x3e343a63	0.17600398
113	0xbcd8f6e2	-0.02648491
114	0x3d6a9748	0.05727318
115	0xbd023927	-0.031792786
116	0x3ba0548c	0.0048928913
117	0x3bb4b49d	0.005514695
118	0x3dc31ea2	0.09527327
119	0xbdef654a	-0.11689241
120	0xbdc3ec1f	-0.09566521
121	0x3e43f23d	0.19135375
122	0x3c98558f	0.018595485
123	0x3d3be7e2	0.045875438
124	0x3e308475	0.17238028
125	0xbbe50121	-0.00698866
126	0xbd1b5123	-0.037919175
127	0x3cd4c9d5	0.025975147

fc3.weight f4 [2, 128]
0	0x3dd9666e	0.1061524
1	0xbe42fb4a	-0.19041172
2	0xbdbea570	-0.093088984
3	0x3eb4e762	0.3533278
4	0xbd69be94	-0.057066515
5	0x3d44730c	0.04796128
6	0x3e234341	0.15943624
7	0x3d8f2031	0.06988562
8	0x3e8c5129	0.2740567
9	0xbe96418d	-0.29346886
10	0xbd81a7e3	-0.0633085
11	0xbe4c511f	-0.1995282
12	0x3c2c8ad9	0.010531151
13	0xbeab7312	-0.3348623
14	0xbc469fc5	-0.012123053
15	0xbe598c71	-0.2124498
16	0xbe8729f5	-0.26399198
17	0xbe88319f	-0.26600358
18	0x3e630133	0.22168426
19	0xbdc4c327	-0.09607535
20	0xbe011a65	-0.12607725
21	0x3d9dbd49	0.07702119
22	0x3eac8197	0.3369262
23	0xbdb84e71	-0.089993365
24	0xbdfb0d1c	-0.1225836
25	0xbd1cb7b7	-0.03826114
26	0xbe3e0c22	-0.18559316
27	0x3bfbfb16	0.007689844
28	0xbe61f5ca	-0.22066417
29	0x3d1c649f	0.038181897
30	0x3e14d6fa	0.14535132
31	0xbdf45e4f	-0.119320504
32	0xbe2afe82	-0.1669865
33	0xbe83f517	-0.25772926
34	0x3c1eeb83	0.009699705
35	0x3d22c2c6	0.03973653
36	0xbe1a6572	-0.15077761
37	0xbd8f9778	-0.07011312
38	0xbeac0afe	-0.33602136
39	0x3cb67253	0.02227131
40	0x3f04ee61	0.5192624
41	0x3e9238a8	0.2855885
42	0x3d839414	0.06424728
43	0x3e865c17	0.26242134
44	0xbe297b2a	-0.1655089
45	0x3ebf9b2b	0.3742307
46	0xbe8bf378	-0.2733419
47	0xbe7cb86c	-0.24679726
48	0xbe9fa9dd	-0.31184283
49	0xbd58d033	-0.05293293
50	0xbe50af59	-0.2037939
51	0x3e4db16b	0.20087211
52	0x3da81e8f	0.082089536
53	0x3e94fe00	0.29100037
54	0xbe77fc1c	-0.24217266
55	0x3d8d64cc	0.06903991
56	0xbe404fb4	-0.18780404
57	0xbbf868e6	-0.0075808642
58	0xbec3b398	-0.38222957
59	0xbdda6547	-0.10663848
60	0xbe930be8	-0.2872002
61	0xbeb94dfc	-0.3619231
62	0xbe685d40	-0.22691822
63	0x3d559b5c	0.052150115
64	0xbeadf3f3	-0.3397518
65	0xbeae2955	-0.3401591
66	0xbe3ae833	-0.1825264
67	0x3edcfb20	0.43160343
68	0x3d3ca439	0.046055052
69	0xbe1b111c	-0.15143245
70	0x3db28a88	0.08717829
71	0xbb91afc5	-0.004446002
72	0x3e40aae2	0.18815187
73	0x3d87aab5	0.06624357
74	0x3db089ea	0.08620055
75	0xbf82b48e	-1.0211351
76	0x3dda7692	0.10667147
77	0xbe9a5d2c	-0.3014921
78	0xbe6ba1d1	-0.23010947
79	0x3d9d1db4	0.07671681
80	0x3da4b8ca	0.08043058
81	0xbe571494	-0.21003944
82	0x3d80f616	0.06296937
83	0xbe49efe4	-0.19720417
84	0x3ca7ca53	0.020482218
85	0x3ce0ea7a	0.027455557
86	0xbea46305	-0.32106796
87	0xbcd52659	-0.026019262
88	0x3e7078bb	0.23483555
89	0x3d69baca	0.0570629
90	0x3e7e2fcb	0.24822919
91	0xbdebe995	-0.115191616
92	0x3e52adcf	0.20574115
93	0xbe746752	-0.23867539
94	0xbe462de3	-0.19353442
95	0xbee334cd	-0.4437622
96	0xbe79dd5e	-0.24400851
97	0x3d17724d	0.03697424
98	0xbe662fab	-0.22479121
99	0x3cdb40ea	0.026764352
100	0xbe4b7aab	-0.19871013
101	0xbe2ac54d	-0.16676827
102	0xbe107f00	-0.14110947
103	0xbe047c61	-0.12938072
104	0xbac67fcf	-0.0015144291
105	0xbe938a8a	-0.28816634
106	0xbedf244b	-0.43582377
107	0xbee1a119	-0.4406822
108	0x3d9a0848	0.07521111
109	0xbe83217a	-0.25611478
110	0x3f2f4617	0.68466324
111	0xbe6a23cb	-0.22865216
112	0x3d48bb27	0.049006607
113	0x3d9044d9	0.07044382
114	0xbe9d001c	-0.30664146
115	0xbed2f6ce	-0.41203922
116	0xbec335df	-0.38127038
117	0xbeb7f3bb	-0.3592814
118	0x3d265f08	0.040617973
119	0x3d4500c4	0.048096433
120	0xbdd7f0e3	-0.10543992
121	0x3e961d7c	0.2931937
122	0xbe026d54	-0.12737018
123	0xbde4559e	-0.11149143
124	0x3df15f05	0.11785702
125	0xbd3bc64c	-0.045843408
126	0xbeac0b31	-0.33602288
127	0x3c749919	0.014929079
128	0xbd344e31	-0.04401988
129	0x3d5b6c45	0.05357005
130	0xbd39b0c5	-0.045334596
131	0xbe086464	-0.13319546
132	0xbe5839a7	-0.21115743
133	0x3c5f4162	0.013626428
134	0xbccdcc89	-0.025121944
135	0x3e646832	0.22305372
136	0xbe924a11	-0.28572133
137	0xbbd289f7	-0.006425138
138	0xbeff5c15	-0.4987494
139	0xbe33bd43	-0.17552666
140	0xbd2d43a0	-0.04230082
141	0xbe48e5f2	-0.19618967
142	0xbc9edf20	-0.019393504
143	0xbec45c27	-0.38351557
144	0xbe942733	-0.28936157
145	0xbe9c3aa5	-0.30513492
146	0x3e7b297c	0.24527544
147	0xbd9238dd	-0.07139752
148	0x3e4fff56	0.20312247
149	0xbb70b000	-0.0036725998
150	0xbe2d9e9d	-0.16955037
151	0xbe4bf110	-0.19916177
152	0xbf194c34	-0.598819
153	0xbd781f34	-0.060576633
154	0x3e247352	0.16059616
155	0xbcc6eb7c	-0.02428221
156	0x3e3f9eb3	0.18712883
157	0x3cf67c1c	0.030088477
158	0xbe105a78	-0.14097011
159	0x3c01fc1d	0.007933644
160	0x3f16a461	0.5884457
161	0x3d9c80d9	0.07641763
162	0xbf208c00	-0.62713623
163	0x3dcdfa46	0.100575015
164	0xbd4f9f98	-0.05068931
165	0xbd8ec1fb	-0.069705926
166	0xbe0635b5	-0.13106425
167	0xbd1aba4e	-0.03777533
168	0xbecf8549	-0.40531376
169	0xbeb6a7f4	-0.35675013
170	0xbcfbae6c	-0.03072282
171	0xbdec3a43	-0.1153455
172	0xbe80f750	-0.25188684
173	0x3d0dbbc2	0.034602888
174	0xbf1ff36a	-0.62480795
175	0x3f37493f	0.7159614
176	0xbeb41a02	-0.35176092
177	0xbe285678	-0.16439235
178	0xbe4762d3	-0.19471292
179	0xbe38b9cb	-0.18039624
180	0xbd8f413d	-0.06994865
181	0xbe90059d	-0.28129283
182	0xbeb746b3	-0.35796127
183	0xbb71263e	-0.0036796476
184	0xbe2f33af	-0.1710956
185	0xbdd75eaa	-0.105161026
186	0xbeb51755	-0.35369363
187	0x3d58458d	0.052800704
188	0x3e62da5d	0.22153611
189	0x3ecd5907	0.40106985
190	0xbe208871	-0.15677048
191	0x3cf347c8	0.029697314
192	0xbd3af121	-0.045640115
193	0x3cbe3abf	0.023221372
194	0x3ee8a20b	0.4543613
195	0x3f320425	0.69537574
196	0xbf08e2e8	-0.5347123
197	0x3f2486e4	0.64268327
198	0x3b6d5524	0.0036214078
199	0xbdabccf3	-0.083887
200	0xb9706fd4	-0.00022929843
201	0xbbe7774c	-0.007063782
202	0x3dd1f63b	0.10252043
203	0xbee00f9a	-0.43761903
204	0xbe47040e	-0.1943514
205	0xbda6183e	-0.081100926
206	0x3e46e382	0.19422725
207	0xbd0e2cf3	-0.034710836
208	0x3b417c59	0.002952358
209	0xbce93496	-0.028467458
210	0xbcde8203	-0.027161604
211	0xbea51940	-0.32245827
212	0xbcd1c075	-0.025604466
213	0x3de8004c	0.113281816
214	0xbefe2463	-0.49637136
215	0x3be4f5f7	0.006987329
216	0x3efb0446	0.49026698
217	0x3c621b31	0.013800428
218	0xbf218498	-0.63092947
219	0xbc17a9bd	-0.009256777
220	0xbee12fce	-0.43981785
221	0xbe8f2787	-0.27959844
222	0xbe03b5c7	-0.12862311
223	0xbdae8f1c	-0.0852339
224	0xbdda20d6	-0.10650794
225	0x3d8e985d	0.06962655
226	0xbe2c96b4	-0.16854364
227	0x3dbec73e	0.09315346
228	0x3ed89474	0.4230076
229	0xbd9d0f29	-0.07668907
230	0x3f36e605	0.7144473
231	0x3eb208dc	0.34772384
232	0xbcc93fff	-0.024566649
233	0xbee37a8f	-0.44429442
234	0xbd2d09e1	-0.04224575
235	0x3f23b768	0.6395173
236	0xbecbbc51	-0.39792112
237	0xbdc6b5d6	-0.09702651
238	0x3b522820	0.0032067373
239	0x3cc19eb8	0.023635253
240	0x3d479489	0.04872564
241	0xbde1028e	-0.109868154
242	0xbe8fd370	-0.28091002
243	0xbe722faa	-0.23650995
244	0x3e853ec5	0.26024452
245	0xbcf2788a	-0.029598493
246	0x3d5bb133	0.053635787
247	0xbead754a	-0.33878547
248	0xbe00c703	-0.12575917
249	0x3ed994c1	0.42496303
250	0x3f0c8adc	0.5489938
251	0x3ed2293b	0.4104708
252	0x3d8acf63	0.06777837
253	0x3dda8a64	0.10670927
254	0x3e2d8a44	0.16947275
255	0xbd2d05d9	-0.042241905

fc3.bias f4 [2]
0	0x3dcea2b4	0.10089627
1	0x3ded741f	0.11594414
