checkpoint_critic_0.pth (torch_old, 187449 bytes, 5 tensors)

fc1.weight f4 [256, 52]
000000 b3 f1 91 be 84 fd b9 be f6 f9 16 3d 7a cd 70 bf
       -0.28504714 -0.3632623 0.036859475 -0.9406353
000010 9b 5c 9e bd 4a 83 b0 3d 62 8a b2 3d 69 b0 66 bf
       -0.07732507 0.086187914 0.08717801 -0.9011293
000020 1f 61 e0 bd 77 43 94 be a2 35 86 bc 92 3d 70 be
       -0.109560244 -0.28957722 -0.016382996 -0.23460987
000030 9a a2 2a 3d 84 34 0e bf d2 55 2b 3c e9 3b 8d be
       0.041658975 -0.5554888 0.010457473 -0.2758477
000040 9b 33 a8 bc 8e 33 96 be 7a fe 05 be 73 0d ad 3e
       -0.02053242 -0.29336208 -0.13085356 0.33799323
000050 24 19 c0 3c 9c 98 82 bf ae 2d 24 be bd 6d bc 3e
       0.023449488 -1.0202823 -0.1603305 0.36802474
000060 46 f1 8d be 99 dc a4 3f 5d cd a1 bd 3c e9 9b be
       -0.2772314 1.2879821 -0.07900498 -0.3045138
000070 c4 5b 25 3d 70 a8 3a 3d 9a 35 96 bd 2e 61 6e be
       0.040370718 0.04557079 -0.073344424 -0.23279259
000080 a4 e3 eb bd 88 17 8c 3f cc 76 57 bd 45 12 16 bf
       -0.115180284 1.0944681 -0.052603528 -0.5862163
000090 a2 3d 15 3d 50 ad 19 bf 59 2c 8a bc 96 7c 1f bf
       0.03643573 -0.6003008 -0.01686685 -0.6229948
0000a0 74 3f 02 be 9a 41 3d 3f 6b ad d9 bc 4e 99 ca 3d
       -0.12719518 0.73928225 -0.02657195 0.09892522
0000b0 01 32 bd bd 88 d9 85 bf ee a6 85 bc b0 49 fd 3d
       -0.09238053 -1.045701 -0.01631495 0.123675704
0000c0 f7 b5 ea bf 33 9f ff bf fc 33 5c c0 86 16 1f 40
       -1.8336781 -1.9970459 -3.4406729 2.4857497
0000d0 6d aa 0a 3c c4 8e 1b bf c3 9b 1a 3e b3 3f 08 3f
       0.008463484 -0.6076472 0.15098481 0.532222
0000e0 af b8 79 be 7c f3 91 bd ff 1e 13 3e a0 a8 05 3f
       -0.24386857 -0.07126519 0.14367293 0.52210426
0000f0 ab b4 57 3e 4f af 29 be 07 e3 85 be b1 97 3f be
       0.21065013 -0.16570781 -0.2614977 -0.1871021
000100 77 03 23 3e 14 52 05 3e f1 4f 8f be 85 ad 0c be
       0.1591929 0.13019592 -0.27990678 -0.13738067
000110 9e 41 85 3e af be 02 be d7 2a 0d 3e 70 88 1a 3f
       0.26026624 -0.12768053 0.13785873 0.6036444
000120 50 b6 9f 3d 7e b5 22 3e c9 d0 cb 3d 02 3a 29 3f
       0.07798445 0.15889546 0.09951932 0.6610414
000130 52 b1 be 3e c3 8c 2a bf 78 08 28 3e f6 c5 f0 3d
       0.3724466 -0.66621035 0.1640948 0.11756508
000140 11 c3 9a 3e 7e 96 e9 bd 30 d7 7f 3e ec 95 0e 3e
       0.3022695 -0.11405657 0.24984431 0.13924378
000150 53 74 4d 3e 3b 00 63 bf a2 b1 1f be d7 93 86 bf
       0.20063905 -0.88672227 -0.15595105 -1.0513867
000160 7b 36 d6 bd 24 4a 6e 3e b5 86 66 be 50 61 87 bf
       -0.1045961 0.2327047 -0.22512324 -1.0576572
000170 f9 2b bc 3e 1e ec 1e bf cd 95 3a be af c3 6c bd
       0.36752298 -0.62079036 -0.18221207 -0.057803806
000180 08 0e 88 bd 9b c6 26 3e 08 91 5c be 22 36 75 bd
       -0.06643301 0.162867 -0.215397 -0.05986608
000190 b8 a6 3d 40 32 57 4c be 83 ab dd 3f 26 c9 9e bf
       2.9633007 -0.19955137 1.7317966 -1.2405136
0001a0 fa 43 19 3e eb 9f cc bf e7 3c bc 3e f2 b9 13 3f
       0.14967337 -1.5986303 0.36765215 0.57705605
0001b0 40 7b 12 3e 0a 9a 91 bd 48 2f 92 3e ee 41 1a 3f
       0.14304829 -0.07109459 0.28551698 0.6025685
0001c0 b5 07 66 3e 7e 96 b9 bf 40 89 67 bc 1c f8 36 bf
       0.22463877 -1.4499052 -0.014131844 -0.71472335
0001d0 13 dc 83 3d ec 0d cd be 0f ef c5 3d 55 14 1e bf
       0.0643846 -0.40049684 0.096647374 -0.61749774
0001e0 9e 9b 5d 3e 18 95 c0 bf 07 fb 2a 3e e2 19 2a 3f
       0.21641394 -1.50455 0.16697322 0.66445744
0001f0 e8 18 9c be a3 83 73 bf 2c 76 54 3e 7e f3 29 3f
       -0.30487752 -0.95122737 0.20748204 0.66387165
000200 bd e6 e8 3e 17 b2 bf be 89 f5 94 bd 2e 87 c7 be
       0.4548854 -0.3744056 -0.072733946 -0.3897032
000210 9b ad 89 bd 4e 8f 3b ba f2 4b bc bd 84 35 b0 be
       -0.06722566 -0.0007154838 -0.09194173 -0.3441583
000220 15 cd 31 3e a9 eb 65 bf b3 24 6a be 5e 18 d5 3d
       0.17363389 -0.89812714 -0.22865562 0.10405038
000230 0c d5 f9 bd a7 71 e6 be c2 0c de bd 20 23 e3 3d
       -0.121988386 -0.45008585 -0.10842277 0.11090684
000240 d7 67 e8 3d c6 ae d7 be 18 78 9d 3c 78 23 01 3f
       0.11347931 -0.4212553 0.019222304 0.50444746
000250 36 cd aa 3e fb 8a 84 bf 83 bf 73 bc c1 44 05 3f
       0.3335969 -1.0354913 -0.014877203 0.52058035
000260 3b fd c2 3f 54 50 2d 3f ba 2a 01 40 5c 52 22 40
       1.523353 0.67700696 2.0182328 2.5362768
000270 1f f9 4b bd 93 76 82 bd 0d bb 53 bd a7 61 96 bd
       -0.049798127 -0.063702725 -0.051692057 -0.073428445
000280 38 d1 03 3f 83 2e ca 3e 51 b9 01 be e4 bb 00 bd
       0.5149112 0.3948861 -0.12668349 -0.031429186
000290 55 a4 d2 3e b1 05 0e 3f 4a 9d 30 bc ec 80 22 be
       0.41141 0.55477434 -0.010779688 -0.15869492
0002a0 e5 9e 99 3e 82 b6 a8 3e a5 ae 85 bd 13 fd 42 be
       0.3000404 0.32951742 -0.065274514 -0.19041853
0002b0 58 b2 51 3f 7b ba 5f 3f b5 59 88 3d f2 82 3b 3f
       0.81912756 0.8739392 0.06657735 0.7324668
0002c0 51 50 2f bf 1e 1b ba be 1c 4e 35 3d 71 ac 38 3f
       -0.6848193 -0.36348814 0.044263944 0.72138125
0002d0 2d 31 11 bf 17 96 e1 3d 46 85 3b bc 5e 92 5d 3d
       -0.5671566 0.110149555 -0.011445349 0.054094665
0002e0 33 39 e3 be d7 eb f0 3e 69 fb 89 bd cd 56 d6 3d
       -0.44379577 0.47054932 -0.06737406 0.10465775
0002f0 c4 00 fd bd 8e ad 20 3e e5 32 80 bd 61 75 ba 3e
       -0.12353662 0.15691206 -0.06259707 0.36417678
000300 df 91 92 be f7 74 a8 3e 3c 8e b7 bd cd fd 8a 3e
       -0.28626916 0.32901737 -0.08962676 0.2714676
000310 52 08 1f be 5a c0 1c 3f e3 31 16 be 3e 0a 18 bf
       -0.15530518 0.61231005 -0.14667468 -0.5939063
000320 ee 9f 3f 3f 52 e7 8b be 20 27 37 be f3 fc 11 bf
       0.7485341 -0.2732492 -0.17886019 -0.57026595
000330 49 54 57 40 95 23 78 3f 09 38 1b c0 d4 d4 a5 bf
       3.3645194 0.96929294 -2.425295 -1.2955575
000340 91 be a5 bd b9 13 19 3d 8a ad 2e bd be 12 11 3f
       -0.08092988 0.037372325 -0.04264597 0.56669223
000350 77 8c e7 3e 6d f2 ef 3e 86 f6 8b bc 85 f7 00 3f
       0.45224354 0.46864644 -0.017085325 0.50377685
000360 b3 84 7d 3e d7 ea f7 bd 0f 18 e2 bd 0d 34 b5 be
       0.24757652 -0.12105339 -0.11039745 -0.35391274
000370 cb ae 4d 3e 59 d4 1c 3f c9 3d f2 bd ba f0 9a be
       0.2008621 0.61261517 -0.11828191 -0.30261785
000380 3b 57 b3 3e 87 f9 8a 3e 06 50 fe 3d 3c 61 d7 3e
       0.3502749 0.271435 0.12417607 0.4206637
000390 1f fa a4 be ee 4d bb bd b6 9b e6 3c 99 07 c7 3e
       -0.32222077 -0.09145723 0.02815042 0.38872984
0003a0 0d 29 4e 3f 43 b5 3e 3f 30 0a fa 3d 48 93 06 bf
       0.8053139 0.74495333 0.12208974 -0.52568483
0003b0 45 c0 cc be 56 56 d6 3e 13 24 a4 3d f9 b9 fe be
       -0.3999044 0.41862744 0.08014693 -0.4975126
0003c0 18 1d 10 3f 7a cc 0c 3f 09 c7 2c be 2a 22 94 3f
       0.56294394 0.54999506 -0.16872801 1.1572926
0003d0 58 e0 2d be 9f 45 1a 3f 8d e0 33 be 97 ac 98 3f
       -0.16980112 0.60262483 -0.17566128 1.192767
0003e0 41 25 5a 3a 70 8d 4c 3f bb c5 62 be 8d 5e 04 3f
       0.00083215913 0.79903316 -0.2214574 0.51706773
0003f0 b6 78 a8 3e 43 25 91 bd 50 32 8e be 17 6e e5 3e
       0.32904595 -0.07087185 -0.2777276 0.44810554

fc1.bias f4 [256]
000000 13 ef 4b be e9 b4 28 bf 3f 21 67 3e 47 78 9f bf
       -0.19915418 -0.65901047 0.22571276 -1.2458581
000010 9c 1d c3 3e 19 1d 34 be da 22 07 c0 38 df 0e 3f
       0.38108528 -0.17589225 -2.1115022 0.55809355
000020 14 f9 57 3f 0e f7 2b be 03 f7 33 bf f5 23 de 3c
       0.8436444 -0.16793463 -0.70298785 0.027116755
000030 62 b3 ba 3d 64 af 6d bf 7f aa cf bf 9e cc 87 bd
       0.09116246 -0.9284575 -1.6223906 -0.066308245
000040 b5 2f 3b be c8 8e fa be 5f 8f e4 3e 5a 66 8a 3f
       -0.18279918 -0.48937058 0.44640633 1.0812485
000050 51 8e eb 3c c2 3f 0d bf 8d bb e5 3d 10 d1 74 be
       0.028754385 -0.5517541 0.11217413 -0.23907876
000060 80 99 81 bf 32 7d da bf fd 71 8d 3e 87 47 56 3e
       -1.012497 -1.7069457 0.2762603 0.20925723
000070 21 fc 28 bf 1b 16 ff be 6f 6e be 3e 55 70 2c 3f
       -0.6600972 -0.49821553 0.3719363 0.67358905
000080 5a 99 95 bf b7 0f 06 bf 46 4d 0a 3f 44 3c 19 40
       -1.1687424 -0.5236773 0.5402416 2.3943033
000090 86 97 2f bf 7b da 2a 3f c7 d8 42 3f c3 2c 4f 3d
       -0.6859058 0.66739625 0.76112026 0.050579797
0000a0 0d b8 81 3c 85 c8 0f bf 8a 48 90 3f 5b 90 10 bf
       0.015834833 -0.56165344 1.1272137 -0.5647027
0000b0 aa 60 51 3f d9 05 01 bf ae 02 f6 3e fa 32 24 c0
       0.8178812 -0.5039955 0.4804892 -2.5656114
0000c0 d1 b6 5b bf fb 0e 81 3f 48 70 2e bd 1b e3 f3 3f
       -0.8582583 1.0082697 -0.04258755 1.9053682
0000d0 72 d9 8a bf a0 92 b1 be da 29 a5 be 62 7c 5d 3e
       -1.0847609 -0.34682178 -0.32258493 0.2162948
0000e0 de 6f 04 c0 01 36 2f bf e5 b6 3b 3d 06 21 e0 be
       -2.0693278 -0.6844178 0.04582872 -0.43775195
0000f0 44 e8 1d bf fe d4 92 bd 10 83 60 bf 45 2a 5e 3f
       -0.61682534 -0.07169531 -0.87699986 0.8678325
000100 e1 6a 0c bc 03 64 99 bd f7 60 8f bf 9e d8 44 3f
       -0.008570404 -0.07489779 -1.1201466 0.7689303
000110 94 8e 96 bf 72 ee 07 3f d0 3f 74 bb 64 0e e0 bd
       -1.1762261 0.53098214 -0.003726948 -0.10940245
000120 cf 55 a3 3f 53 9f 5a bf b2 81 bf 3f 6c 69 b0 3e
       1.2760562 -0.8539936 1.4961455 0.3445543
000130 50 4c ce 3e 15 cb 0f 3f 6f 8f b6 be ab f4 3b c0
       0.40292597 0.56169254 -0.35656306 -2.9368083
000140 a1 c1 54 be 23 e1 61 bf 03 bb a3 3e 07 e1 41 bf
       -0.20776989 -0.88234156 0.31978616 -0.7573399
000150 a2 f2 84 3f fb e7 2d 3f 2d d1 d3 bf f7 16 83 bf
       1.0386546 0.679321 -1.654821 -1.0241383
000160 d6 73 c1 be f2 b0 98 be 0e 6e b5 be b1 7d 89 3f
       -0.37783688 -0.298225 -0.35435528 1.0741483
000170 a1 81 a8 bf c3 cc 75 be 79 cd 8a bf 07 b4 01 bf
       -1.316456 -0.24003892 -1.0843955 -0.50665325
000180 fd e5 89 c0 e5 30 57 c0 35 8f 30 3f f8 3b 1d 3d
       -4.3093247 -3.3623593 0.68968517 0.03838727
000190 f6 9c ad 3e 8c 66 02 bb 94 02 36 3f 76 e5 d5 3e
       0.33908814 -0.0019897548 0.71097684 0.41776627
0001a0 1f ee e3 be 80 7f fe 3e f3 23 95 3e 42 2d 49 3e
       -0.4451761 0.4970665 0.2912899 0.1964617
0001b0 73 cd d8 bf 78 11 dc be 5d 66 81 bf f7 67 d0 bf
       -1.6937698 -0.42982078 -1.0109364 -1.6281728
0001c0 d8 51 bb 3e 12 a8 b2 3f ab 5b b3 bf 82 54 38 3e
       0.3658588 1.3957541 -1.401235 0.18000987
0001d0 11 0f 82 3f ad e0 9e 3e b9 05 8b be c9 30 63 3f
       1.0160848 0.3103079 -0.27152804 0.88746315
0001e0 b1 13 b9 3f 0b 47 8c bf 8b 66 b0 3e b1 6b de 3f
       1.4459134 -1.095918 0.34453234 1.7376615
0001f0 0f bc 9b 3e 16 37 00 3f b3 27 80 bf af 8d 41 bf
       0.30416915 0.50084054 -1.0012115 -0.75606817
000200 72 6a c5 bf 80 73 cd be 19 cd 3c bf b5 89 15 3f
       -1.542311 -0.40127182 -0.73750454 0.5841325
000210 26 a4 67 3d 13 eb 42 3e d0 5e 4a bf 2c c0 8a 3e
       0.05655303 0.19034986 -0.7905092 0.2709974
000220 c4 62 b8 3e 5e 88 e5 3f 73 f8 f3 be dc cc cd be
       0.36012852 1.7932241 -0.4765049 -0.40195358
000230 1b 14 e0 bf 4e 19 ae 3e 5b 9d 04 3f d1 76 68 3e
       -1.7506136 0.3400368 0.51802605 0.22701575
000240 ba 6e ea be 68 59 41 bf 21 f6 0a 40 a2 a0 3c bf
       -0.45787603 -0.7552705 2.1712725 -0.73682606
000250 5f 3e b6 bf ee 42 aa 3e 9a 6a a0 bf 2b ad c2 be
       -1.4237784 0.33254188 -1.2532532 -0.38022742
000260 3a 45 97 3e 70 18 93 bf 6a d7 b0 bf fd 9a a0 bf
       0.29545003 -1.1491833 -1.3815739 -1.2547299
000270 4d 08 c0 3f d7 6c a7 be b1 96 84 bf e7 59 5c bc
       1.5002533 -0.32700226 -1.0358487 -0.013449169
000280 f8 0c d1 3c 39 ad b8 bf cf ec ec 3b dc 2e 4c 3f
       0.02551888 -1.4427863 0.007230378 0.79759
000290 cc 25 88 3e 9d 11 3c 3f 6e 62 c9 be 20 49 4e bf
       0.26591337 0.73464376 -0.39332908 -0.8058033
0002a0 2f 46 13 c0 73 69 d0 3e a2 00 53 3f 57 6f b0 be
       -2.3011587 0.4070545 0.8242284 -0.34459946
0002b0 c9 b4 81 bf 3b d7 5d bf e8 76 b0 bf 46 a1 ab bc
       -1.0133296 -0.8665654 -1.3786287 -0.020950925
0002c0 65 c3 03 40 c0 5f 02 bf 30 25 e8 be 79 20 8f 3f
       2.058801 -0.5092735 -0.45340872 1.1181785
0002d0 a2 6e 37 bf 56 f7 91 bf f5 66 c3 be f9 51 85 3f
       -0.7165319 -1.1403606 -0.38164487 1.0415641
0002e0 e8 f5 9f 3d e4 88 42 bf 8b e0 64 be b6 8a 38 bf
       0.07810575 -0.7599013 -0.22351281 -0.72086656
0002f0 32 b2 45 bf 2a 12 13 bf 98 27 38 3f 5d 0e 6a be
       -0.7722503 -0.5744959 0.71935415 -0.22857042
000300 e3 e4 24 c0 37 5c f9 be 19 ec 13 bf a5 63 00 3f
       -2.5764701 -0.48703167 -0.5778213 0.50152045
000310 e7 cf 8c be 3c 2f 86 bf 60 ff 42 be ea 72 af be
       -0.27502367 -1.0483165 -0.1904273 -0.3426736
000320 a5 3b 4c bf 33 10 29 c0 f6 37 78 bf a6 f3 82 be
       -0.7977851 -2.6416137 -0.9696039 -0.25576514
000330 f6 a8 7c 3f af f1 22 3e a5 e2 d3 bd 10 84 4f bf
       0.98695314 0.15912507 -0.103459634 -0.81060886
000340 37 bb ab be 41 c6 86 bf c0 93 08 3f c2 be ff 3e
       -0.3354127 -1.0529252 0.5335045 0.49950224
000350 21 80 c2 3f c0 77 90 bf 31 43 dd be 04 87 64 bd
       1.5195352 -1.1286545 -0.43215325 -0.055792823
000360 2a b7 9f bf 1d 9e ab be 86 28 d3 be ed 15 5b 3f
       -1.2477772 -0.33519068 -0.41241854 0.8558033
000370 c7 a7 d8 3e 00 c7 75 bf 33 a6 0b 3f 8f ad 5d bf
       0.42315504 -0.96006775 0.54550475 -0.86592954
000380 35 57 ea bf 3c ed 6b 3e 68 d5 9f bf 46 2d ae 3f
       -1.8307863 0.23039716 -1.2487001 1.3607566
000390 e3 df d3 3f 2d 19 9c be 7f f5 35 3f 6c d0 45 bf
       1.65527 -0.30487958 0.7107772 -0.7727115
0003a0 76 f6 51 be d3 bb 9f 3e 3a 37 b4 bf a6 85 90 bf
       -0.20504174 0.31197986 -1.4079354 -1.1290786
0003b0 4c 9c 11 bf 7c bf 54 bf 58 40 ff bf 5b 43 a2 bf
       -0.56879115 -0.8310468 -1.9941511 -1.2676805
0003c0 f5 7a 5f 3f aa ed 27 bd ff 20 09 bf 65 a8 1d bf
       0.8729699 -0.04099814 -0.53565973 -0.61585075
0003d0 7d 09 06 bf c6 4c 29 bf 74 16 bf 3d f3 1f e8 3e
       -0.5235823 -0.6613277 0.093304545 0.45336875
0003e0 42 d5 a0 be 81 ef 6e bf a7 b8 6f be 6c 9d 51 be
       -0.31412703 -0.93334204 -0.23410283 -0.20470208
0003f0 99 a9 18 c0 b4 5e 32 bd 22 24 4c 3f c3 4a dd 3e
       -2.3853514 -0.043547347 0.79742634 0.432211

fc2.weight f4 [128, 256]
000000 f0 07 0b 3d ef f0 94 bd 30 84 ad bd 01 ed 8b bd
       0.033943117 -0.07272517 -0.084724784 -0.06832314
000010 2f 4e 7f bd 7f 3d 01 be 0e 74 9d 3d c7 ea 60 3d
       -0.06233042 -0.12621115 0.07688151 0.0549114
000020 e5 16 1b bb e6 2f 60 3c c6 18 8b bc bc 3e 90 bd
       -0.002366477 0.013683295 -0.016979586 -0.07043216
000030 cb ed 40 3d c0 29 86 bd 0f d1 b7 3c cf ed d3 bd
       0.047101777 -0.06550932 0.022438554 -0.10348093
000040 96 5a 48 bd f8 eb 02 be 37 a7 e3 bc 4a 0c c6 3c
       -0.048914514 -0.12785327 -0.027789695 0.024175782
000050 66 f3 56 bd 1d 77 6a 3d d0 b0 3f 38 7b e0 8f bd
       -0.052478217 0.0572425 4.5702618e-05 -0.07025238
000060 48 e5 a1 bd 7b 64 90 bd c6 01 81 ba db 9e 97 bc
       -0.0790506 -0.07050415 -0.0009842447 -0.018508365
000070 40 f8 5d 3d be 93 f7 bc be e9 29 3b db 8d c0 bd
       0.054191828 -0.030221816 0.0025926675 -0.09402057
000080 eb fb 16 3c 41 70 53 bc cc ef 7a 3d f9 67 22 bd
       0.009215335 -0.012905181 0.061263844 -0.039649937
000090 12 5c 37 bd fe 0a 90 bd 1f 3a 92 bd 28 a7 01 be
       -0.04476554 -0.070333466 -0.07139992 -0.12661421
0000a0 c1 ba 9e 3d 4c 1a 84 bd 09 78 33 bd e9 d2 b6 bd
       0.07750464 -0.06450328 -0.043815646 -0.08926947
0000b0 f7 ce 96 bd a8 03 ae bd 37 33 7e 3c b4 e9 b0 bd
       -0.07363694 -0.08496791 0.01551514 -0.08638325
0000c0 1b d0 e4 bd de 6b 4d bd be 0e ac bb 49 27 c9 3c
       -0.111725055 -0.0501517 -0.005250781 0.024554865
0000d0 11 8f 8d bd 90 b1 86 3d ae c2 c4 bc 3f ed c8 bc
       -0.069120534 0.06576836 -0.024018612 -0.02452719
0000e0 f8 9b 8d 3c c7 48 9d bd 02 23 08 bd d8 40 a0 bd
       0.017286286 -0.07679897 -0.03323651 -0.07824868
0000f0 99 49 41 3d f4 99 67 bc 28 ab 11 be 48 82 04 bd
       0.04718933 -0.014135826 -0.14225447 -0.03235081
000100 75 dd 46 bd 1c bc 65 bd 34 f7 d4 3b 25 91 d8 3c
       -0.04855104 -0.0560876 0.0064991955 0.026436398
000110 ff 76 64 bd c4 92 db bd 16 a1 10 3b 17 88 89 bd
       -0.055777546 -0.10721353 0.002206867 -0.0671541
000120 18 0b 06 3d d2 2c 35 be c2 0b 5c 3d 50 0d 17 3d
       0.032725424 -0.17692879 0.05372215 0.03687793
000130 5c 2c 6c bd 22 df 6f bc ac 31 84 bd ab eb 1b bd
       -0.057659492 -0.014640601 -0.06454787 -0.038066547
000140 06 9c 41 3d d8 77 ab bb 6d 31 9f bd 0b 10 57 3d
       0.047267936 -0.0052327923 -0.07773099 0.052505534
000150 5d 2f 39 bd 23 86 fd bc 19 f5 62 bb cd e2 19 bd
       -0.045211185 -0.03094775 -0.0034630953 -0.03756981
000160 6c 0d 7f 3c 7f 1a 6f bd 86 bd 91 bd 2a 4d 54 bd
       0.015567165 -0.058374878 -0.07116227 -0.051831402
000170 9d 01 83 bc 2d 01 38 3d 49 92 21 3d 40 b0 5f bd
       -0.01599198 0.044922996 0.03944615 -0.054611444
000180 b2 7a 88 bd 9f 1e c0 bd fd 39 a6 3c 1b 02 27 bd
       -0.06664027 -0.093808405 0.020291323 -0.040773492
000190 69 5c 9b bb 8f ad 90 3d 32 ea af bd 7f bb f0 3c
       -0.0047412408 0.07064354 -0.08589591 0.02938628
0001a0 b6 a1 9d bd d3 fd cf bd e3 e0 fe bd e3 18 de bd
       -0.076968595 -0.10155835 -0.124452375 -0.108445905
0001b0 5b 54 12 bd 1a 1f 56 3d e0 d6 ca bd a7 ad e6 bc
       -0.03572498 0.052275755 -0.099042654 -0.028158976
0001c0 32 71 74 bd 63 57 bd 3c a3 da 8c 3c 8a 19 8a bd
       -0.059678264 0.023112958 0.017194098 -0.067431524
0001d0 c4 f6 45 3d 14 f0 97 bd 93 b2 32 bd 00 8f 85 bd
       0.048331037 -0.07418838 -0.043627333 -0.06521416
0001e0 53 71 40 3d b7 7f 39 bd e4 98 be 3c 5a 63 b3 3d
       0.046983074 -0.045287814 0.023266263 0.08759184
0001f0 72 ab 04 be 19 e4 89 bd f9 38 57 3d 49 e7 4c bb
       -0.12956026 -0.06732959 0.052544568 -0.0031265786
000200 81 42 76 bd 7f e6 4c bd 42 c4 38 3b d8 6a 80 3c
       -0.060122017 -0.050024506 0.002819315 0.015675947
000210 90 96 d1 bd dd d3 be ba 5f 23 5a bc dc 2a cf 3c
       -0.10233796 -0.001455899 -0.013314097 0.025288992
000220 31 e2 61 be fa 0e f9 bd 25 76 84 bd d0 24 a4 bd
       -0.22058941 -0.1216106 -0.06467847 -0.08014834
000230 ac b7 ba bd d4 24 aa bd 65 2f 79 bc ef 18 c1 bd
       -0.09117064 -0.08307806 -0.015209054 -0.09428584
000240 07 c4 f1 bd e4 5e c8 bd c9 59 03 3d 8b 1e 06 be
       -0.118049674 -0.09783724 0.032068048 -0.13097589
000250 ef fd d8 3d b9 61 b5 bd fe 8f ad 3a 69 10 85 3d
       0.10595309 -0.0885653 0.0013241766 0.064972706
000260 3b a2 7a bc 60 66 14 3d f5 2d 89 bc 89 6a b2 bd
       -0.015297468 0.036230445 -0.016745547 -0.08711726
000270 0e ea 10 bd 26 ee 58 bc fb 04 b5 bd 99 65 2b bd
       -0.035379462 -0.013240373 -0.088388406 -0.041844938
000280 5a 20 9e bd f0 10 91 3c 72 26 8d bd 90 e2 91 3d
       -0.07721014 0.017708272 -0.068920985 0.071232915
000290 9f 07 a8 3c 61 09 61 3d 6a 24 d8 bd 3d c8 7d 3d
       0.020511447 0.054940585 -0.105538204 0.06195854
0002a0 eb a6 b7 bb a2 5f e6 bd 07 11 e5 bc f9 d3 bb 3c
       -0.005604615 -0.11248709 -0.02796222 0.022928225
0002b0 03 fb 0c 3d 80 59 5b 3b 93 ab 22 bd 1b 41 fb 3b
       0.03441907 0.0033470094 -0.039714407 0.0076676733
0002c0 a6 ad 89 3a 64 f4 bd bd b5 7f 18 3b d2 c8 f9 bc
       0.0010504022 -0.092751294 0.0023269479 -0.030491266
0002d0 0f 1f 83 3d 17 4f 86 bd d0 aa c2 bd 32 96 30 bd
       0.06402408 -0.06558054 -0.09505236 -0.043111987
0002e0 c9 c6 db bd 20 51 86 bc 9d ff 27 bd 0e 48 9a bd
       -0.10731275 -0.016396105 -0.041015256 -0.075332746
0002f0 62 46 0d be c1 ac a9 bd be f4 bf bd b1 18 84 3d
       -0.1379638 -0.08284903 -0.09372853 0.06450022
000300 f0 91 1a bd c1 5b aa bd de 1d 59 3d 3e 7c af bc
       -0.037736833 -0.08318282 0.053007 -0.021421548
000310 03 e4 51 bd 73 19 b8 bd 78 f7 8e bc 34 34 a6 bd
       -0.05124284 -0.08989229 -0.017451987 -0.08115426
000320 50 b0 4b 3d 6c 6d b8 bd 5e 45 01 3d 65 2e 69 3c
       0.04972869 -0.090052456 0.031560294 0.014232253
000330 62 dd 0c be 3b 4d 53 bd ca 8e 9d 3c 98 24 a2 3c
       -0.13756326 -0.051587325 0.019233126 0.01979284
000340 a8 5c 59 bd b0 b6 4a bd cc 67 08 be 5a 51 ef bb
       -0.05306688 -0.04949063 -0.13320845 -0.007303399
000350 70 c6 90 bd 82 76 7d ba 82 1f 8d bd bb 2c 8d bc
       -0.07069099 -0.0009668843 -0.06890775 -0.017233243
000360 93 8a 9d bd d4 aa 84 bd 1b 8a be bd 4a 6e 57 bd
       -0.076924466 -0.064778954 -0.09303685 -0.052595414
000370 8d d8 1b 3d 91 14 86 bb cb 5c ca bd 9b 1c 40 3c
       0.038048316 -0.004091807 -0.0988098 0.01172557
000380 0b 9d 80 bd 71 fa 43 bd bc 81 03 3d cf b0 9e bd
       -0.062799536 -0.04784626 0.032106146 -0.07748567
000390 f7 33 e9 bd 13 63 01 bd 27 34 41 bd 5d 6b fe bd
       -0.11386865 -0.031588625 -0.047168877 -0.12422822
0003a0 4d 21 c4 bd 1c a8 24 be ab 13 12 3d 63 9e 53 bd
       -0.09576664 -0.16079754 0.035663288 -0.05166472
0003b0 d9 61 d4 bd 7e 49 5f bd 7e 65 a9 bd f3 de 07 be
       -0.103702255 -0.054513447 -0.08271311 -0.13268642
0003c0 0b 4b 9b bd 92 41 24 be 3e 64 18 bd ee 8b 44 3d
       -0.07582673 -0.16040638 -0.037204973 0.04798501
0003d0 43 3c c1 bc 36 c2 25 bb 49 35 9c bd 42 96 a6 3d
       -0.023588305 -0.002529276 -0.07627351 0.08134128
0003e0 74 e9 8e bc 17 74 06 bd 5f b1 92 3c d3 cc 8a bd
       -0.017445303 -0.032825556 0.017906843 -0.06777348
0003f0 7f 0e a3 bd fb e8 fb 3c 3b 99 66 3c d8 41 02 3c
       -0.07961749 0.030750742 0.014074619 0.007950269

fc2.bias f4 [128]
000000 5d 9b 9d bd bc 06 43 3e 69 fc 4a be 72 88 b2 bb
       -0.07695649 0.19045538 -0.1982285 -0.0054483945
000010 8b 03 66 3b 80 df d8 bd da 46 b7 3c b4 d1 f2 3d
       0.0035097327 -0.10589504 0.022372652 0.11856404
000020 97 59 ae bc df 97 18 bd fd 8d bf bd 0d 75 93 3e
       -0.021282954 -0.03725421 -0.09353254 0.2880024
000030 17 f9 16 bd cc b1 c0 bd 0a 2a 41 bc 8d 42 01 be
       -0.036858644 -0.09408912 -0.011789808 -0.12623043
000040 37 b0 35 3d 4a fb bf bc 52 0a ee bd 2c ec 61 3d
       0.044357505 -0.023435254 -0.11623062 0.05515687
000050 db 77 7a 3c e3 c9 36 3d ad 1b a3 bd 5f e1 c0 bd
       0.015287365 0.044626128 -0.07964263 -0.09417986
000060 d5 d1 ba 3c 96 60 30 bd 1f 11 16 be 38 11 89 bd
       0.022805134 -0.04306086 -0.14654969 -0.06692737
000070 b5 57 43 3e 40 12 a0 be 53 05 fc b9 13 f6 c0 bc
       0.19076426 -0.31263924 -0.00048069152 -0.023554837
000080 da d9 3a 3d 7d c8 50 bd 09 36 9b bd 59 15 bb bc
       0.045617916 -0.05097245 -0.07578666 -0.022837328
000090 7f 95 96 3e 16 a9 cb be 26 07 4a 3e a1 e9 85 be
       0.2941093 -0.3977744 0.1972929 -0.26154807
0000a0 37 3c d5 bd c8 ef 1d bd 01 90 ad bc 2b 65 48 3d
       -0.10411876 -0.03855875 -0.02118683 0.048924606
0000b0 c8 3c b1 bd 84 f5 9c bd 30 eb 8f bd f3 31 14 3e
       -0.08654171 -0.07664016 -0.0702728 0.14472179
0000c0 24 01 b9 bd 67 a0 6b bb 9d ed 15 bd 25 1e 1c be
       -0.09033421 -0.0035953762 -0.03660356 -0.15245874
0000d0 fe 62 92 3b d1 24 bf bd 7c 1b d0 3c 6d 27 05 be
       0.004467367 -0.09333194 0.02540373 -0.13003321
0000e0 ec 56 c1 be 4d a6 8c bd db c2 1a 40 d6 56 d9 bd
       -0.3776163 -0.06867657 2.418143 -0.10612266
0000f0 ba 54 f0 bd 90 c4 3c bc c0 8a 7a bd d3 bf d4 bd
       -0.1173491 -0.0115214735 -0.06116748 -0.1038815
000100 e2 19 06 be bf ca 8e bd e3 bb a5 bd d5 ea b0 bd
       -0.13095811 -0.069722645 -0.08092477 -0.08638541
000110 51 5e 06 be 3b ad c9 bd 57 df 6f 3c 85 30 8c be
       -0.13121916 -0.09847494 0.014640651 -0.27380767
000120 df 32 0b be 9b 6f 34 3d 56 35 a4 bd 9e b2 3b bd
       -0.13593625 0.044051748 -0.080179855 -0.04582464
000130 b3 b3 29 3c c2 38 53 be e7 96 92 be b8 f3 f1 bc
       0.010357785 -0.2062712 -0.28630754 -0.02953516
000140 f3 22 06 3d fa 5a cc 3e 97 4e c1 3d 02 8c 84 bd
       0.032748174 0.3991316 0.09438818 -0.06472017
000150 a7 92 8c bd 45 da 02 be b1 61 71 bc fc 79 e6 3c
       -0.06863909 -0.12778576 -0.014732764 0.028134339
000160 37 a6 aa bb e3 fa 86 bd 44 ca 01 be ec cb ac 3d
       -0.0052078026 -0.065908216 -0.12674814 0.084373325
000170 6d 0e 4b bc c5 7d f7 bd 4f e0 cb 3b 02 38 e5 bb
       -0.012393576 -0.120845355 0.006221808 -0.006995202
000180 c9 b5 32 3d 69 07 d0 bd fc d6 74 bd f1 84 3e bd
       0.043630395 -0.101576634 -0.059775338 -0.0465135
000190 11 24 99 3c 79 98 3a bd 8c 93 07 be 0b 6c e5 bd
       0.018693956 -0.045555566 -0.13239878 -0.11202248
0001a0 9a c2 09 3e f6 8b a0 bd 8c a6 b7 be 9d 9f 1a bd
       0.13453141 -0.078391954 -0.35869253 -0.037749875
0001b0 1f 95 ee bb e6 bc cf bc b7 da 4a bd 06 4a a2 bd
       -0.00728096 -0.025358628 -0.04952499 -0.07924275
0001c0 a0 e1 23 bd 98 3a 53 bd 1e 8c c0 bd 3c 03 3b be
       -0.040010095 -0.05156955 -0.09401725 -0.18262953
0001d0 a6 f4 1c bd 95 3e 89 bd f7 10 56 bb 83 db 0a be
       -0.038319252 -0.0670139 -0.003266392 -0.135603
0001e0 06 cc 38 bc a8 64 84 3b 46 eb 7f bd 1e cd bd bd
       -0.011279112 0.0040403195 -0.062480234 -0.092676386
0001f0 07 51 8d bd 07 8d ae bd d3 0b 69 bd b6 64 96 3c
       -0.0690022 -0.085229926 -0.056896042 0.01835857

fc3.weight f4 [1, 128]
000000 2b 0c a0 ba 26 3f f2 3b ec 64 07 3b e8 03 78 bc
       -0.0012210658 0.007392782 0.002065952 -0.01513765
000010 89 89 97 bd eb 39 80 3c 78 15 83 ba 4b 56 c1 3c
       -0.073992796 0.015652617 -0.0010000905 0.023600718
000020 b8 74 80 b8 ed e0 6e bd 5c da a1 3c b8 36 aa 39
       -6.125256e-05 -0.058319975 0.019757442 0.00032465695
000030 6c 50 e7 bb 1b 9e 99 ba 5b 6b 82 3d 81 07 33 3a
       -0.0070591476 -0.0011720093 0.06368133 0.0006829426
000040 9b bf b5 3b a6 30 6b bc 6c 53 3a 3c 77 35 c7 3d
       0.005546523 -0.01435486 0.011372428 0.097269945
000050 dd 5e 1c 3d 8c 95 1b 3c b2 02 a0 3a cd 90 57 ba
       0.038176406 0.009496104 0.0012207835 -0.0008223176
000060 b7 1a 25 3c 84 35 97 bc 42 70 cd bb d5 ae 7b bb
       0.01007717 -0.018458135 -0.0062694857 -0.0038403769
000070 02 22 09 3c f1 ff b7 39 2d 61 0b 3c 3f 09 c6 bb
       0.0083699245 0.0003509517 0.008507055 -0.0060435827
000080 48 4e 2b 3c f5 8f 9e bc ab 4c 79 3c 75 7c 36 bc
       0.010455675 -0.019355753 0.015216033 -0.011138071
000090 33 f7 f7 3c f4 d5 11 bc 69 38 a8 3c 87 3a 6d 3c
       0.030269241 -0.008901108 0.020534711 0.014479286
0000a0 56 c7 8d 3c e6 0e 2b bc 65 c1 14 3c ad 7b a9 3c
       0.017306965 -0.010440564 0.009079312 0.020688856
0000b0 49 4e 1c bc c6 8e ec 3c 62 65 aa bc 59 9b a8 3b
       -0.009540149 0.028876673 -0.020800296 0.005145472
0000c0 bc a0 0c bd b7 f6 73 bc ee 58 0a 3c 54 c8 00 bb
       -0.034332976 -0.014890364 0.008444054 -0.0019650655
0000d0 83 f0 0e 3d e6 a9 6c 3a 7a 88 8c 3c 7d b9 56 bc
       0.03489734 0.00090280024 0.01715492 -0.013105747
0000e0 90 26 54 bc bc f4 4a 3c d8 c8 61 3b 44 fe ed bb
       -0.012948647 0.012387451 0.0034451988 -0.007262977
0000f0 83 e2 7b 3c 36 84 c8 3b 58 27 60 bc 6f e6 89 3c
       0.015373829 0.0061192764 -0.013681255 0.016833512
000100 34 6b 99 3c b1 75 4c 3b ae 6e b5 ba 6d 32 98 bc
       0.018727876 0.003119808 -0.0013842189 -0.018578732
000110 eb 56 0b bc 80 c6 d2 bc e4 e8 0e 3c 98 d5 0f bd
       -0.00850461 -0.025729418 0.008722518 -0.03511581
000120 1c ea 8a ba f3 8c cf 3c 55 46 83 bb 1f 01 a3 3c
       -0.0010598334 0.025335765 -0.004006187 0.019897996
000130 f6 2f aa 3c 56 67 82 bc 9c 50 3c bc 81 69 2e b9
       0.020774823 -0.015918415 -0.011493828 -0.00016633236
000140 f0 49 a9 3c 99 89 2c bc 03 8a 3a bc 0c 38 4f 3c
       0.020665139 -0.010530853 -0.011385444 0.01264764
000150 32 03 cd 3a 2d c8 db 3b 89 b2 0c 3d 40 ea 5b ba
       0.0015641211 0.0067072124 0.034349952 -0.0008389093
000160 29 1a c6 3c 33 ad 93 3c f0 f5 22 bc 07 a0 54 bd
       0.024182396 0.018026924 -0.009946331 -0.051910426
000170 a1 48 95 3b c5 9a b7 3b a2 45 43 bc 85 d6 8d bc
       0.004555777 0.0056031668 -0.011918457 -0.017314205
000180 5e bc 9e 3a 6f cf 9d 3b e8 6f c5 bc 2c f1 fb 3c
       0.0012110581 0.004815988 -0.024101213 0.030754648
000190 4f 63 f8 bb bf 99 74 3c bc da 88 3d 4e 95 df 3b
       -0.007580198 0.014929234 0.06682345 0.0068232184
0001a0 ee 4d c7 3c d9 8b 4e 3c cb 4b 37 bc c0 59 11 3c
       0.024329152 0.0126065845 -0.011187504 0.008871496
0001b0 78 9b f0 bb ff 99 1a 3c 44 56 26 3c fc f1 32 3d
       -0.007342752 0.00943613 0.010152403 0.043687806
0001c0 80 4a a3 3c 77 63 37 bb 0e 4f b4 b9 60 6b c8 bb
       0.019932985 -0.002798287 -0.00034391176 -0.0061163157
0001d0 aa 79 96 3c af 52 13 3d b0 66 87 bb b1 6f 96 3c
       0.01836856 0.035967525 -0.0041321144 0.018363805
0001e0 3f 45 9c 3b b0 6d ba bc f0 e0 97 bc 0d f2 bf bb
       0.004768997 -0.022757381 -0.018539876 -0.005857712
0001f0 bb 94 78 3c c3 9c 12 bc a4 9c ba 3b fd bf 66 bb
       0.015172179 -0.008948508 0.0056949425 -0.0035209649
