checkpoint_actor_1.pth (torch_old, 159294 bytes, 6 tensors)

fc1.weight f4 [256, 24]
0	0xbdf23ab8	-0.11827606
1	0x3c2a137f	0.010380625
2	0x3a2cbd09	0.0006589448
3	0x3e46a5cf	0.19399188
4	0xbe17d179	-0.14826001
5	0x3b193b82	0.0023381417
6	0xbd84adea	-0.06478484
7	0x3e202ca0	0.15642023
8	0xbe19f1dd	-0.1503367
9	0xbc33a619	-0.010964894
10	0xbc93483f	-0.017978786
11	0xbe148527	-0.14503919
12	0xbdaa1aaa	-0.08305867
13	0x3cd0a5a9	0.025469618
14	0xbbfcbc47	-0.007712874
15	0xbdbcf56d	-0.09226499
16	0xbcce9cd8	-0.025221273
17	0xbd57bca9	-0.052670155
18	0x3cdb9f9e	0.02680951
19	0xbde872ef	-0.11350047
20	0xbd379870	-0.04482311
21	0xbdf404b4	-0.119149595
22	0xbd67df60	-0.05660951
23	0xbe071a55	-0.13193639
24	0xbd23c87d	-0.039986122
25	0xbeff9e6f	-0.49925563
26	0xbd645e65	-0.055754084
27	0xbd243837	-0.040092673
28	0xbdbf02c8	-0.09326702
29	0xbe90a1f8	-0.28248572
30	0xbc32538a	-0.010884175
31	0xbc9ea6e9	-0.019366698
32	0x3d1b8674	0.03797002
33	0xbeca481c	-0.3950814
34	0x3cb4597e	0.02201533
35	0x3e484153	0.19556169
36	0xbdda26fa	-0.106519654
37	0xbe7ea10f	-0.24866126
38	0x3d63e095	0.0556341
39	0x3de2bdc0	0.11071348
40	0xbd033b77	-0.032039132
41	0xbeacfbb9	-0.337858
42	0x3d9da968	0.07698327
43	0x3e1197e6	0.14218101
44	0xbdad692e	-0.08467327
45	0xbde6ea8c	-0.11275205
46	0x3c738b9f	0.014864831
47	0x3e39c2d3	0.18140726
48	0x3cbd1d5e	0.023085292
49	0xbc495338	-0.012287907
50	0xbd03623e	-0.032076113
51	0x3d32f296	0.04368838
52	0x3d0b27fc	0.03397368
53	0x3d05a653	0.032629322
54	0xbd25d590	-0.040486872
55	0x3d1ba775	0.038001496
56	0x3d85bc8f	0.06530105
57	0x3cb52713	0.022113359
58	0x3bb96c9a	0.0056586983
59	0xbdd14c2b	-0.10219606
60	0x3dece00c	0.11566171
61	0x3d18f6dc	0.0373448
62	0xbc6bf37e	-0.014401315
63	0xbda7d4b2	-0.08194865
64	0xbc50c98a	-0.012743363
65	0x3bbe035a	0.0057987394
66	0x3da65130	0.08120954
67	0xb9205f61	-0.0001529432
68	0x3caaace4	0.020834394
69	0xb9eb1f2d	-0.0004484592
70	0x3d9ff059	0.078095146
71	0x3c846454	0.016161121
72	0xbd16a0b5	-0.036774356
73	0xbe378d42	-0.1792498
74	0x3d66010c	0.056153342
75	0xbe2e61c3	-0.1702948
76	0x3db93049	0.09042413
77	0xbd8c5c8c	-0.068535894
78	0xb9851f5e	-0.00025391107
79	0xbe17cce1	-0.14824249
80	0xbdcc9cb2	-0.09990825
81	0xbe3d36d4	-0.18477947
82	0x3d3bec74	0.045879796
83	0xbe146384	-0.14491087
84	0xbd04aee6	-0.03239336
85	0xbd873a54	-0.06602922
86	0x3d2a30b6	0.04155036
87	0xbe39116b	-0.1807305
88	0xbd988ff0	-0.07449329
89	0xbe345fbb	-0.17614643
90	0x3d755624	0.059896603
91	0xbe1ae4f4	-0.15126401
92	0xbcfa089e	-0.030521687
93	0xbe619f64	-0.22033459
94	0xbc3cdd21	-0.011527331
95	0xbdf41dba	-0.119197324
96	0x3d8ff426	0.070289895
97	0x3ca74801	0.020420076
98	0xbd5dd7d7	-0.05416092
99	0x3c922d5c	0.017843895
100	0xbe1286cf	-0.14309238
101	0x3e187b67	0.14890824
102	0xbe17837c	-0.14796251
103	0x3da21777	0.07914632
104	0x3da3f64f	0.08005964
105	0x3d20f932	0.03930015
106	0xbdb35652	-0.08756699
107	0x3dcd1048	0.10012871
108	0x3dd8a4f7	0.105783395
109	0xbbea8baf	-0.007157765
110	0xbd746684	-0.05966808
111	0x3ddfb94e	0.10924016
112	0x3dc9f047	0.098602824
113	0x3d23446d	0.039860178
114	0xbd277b50	-0.040889084
115	0x3e1f32be	0.155467
116	0x3ddd1fb6	0.10797064
117	0xbd841252	-0.06448807
118	0x3a303b7a	0.000672273
119	0x3e61e37d	0.22059436
120	0xbc3abe65	-0.011397933
121	0x3f053190	0.5202875
122	0xbd2c5ef2	-0.042082734
123	0x3e884f83	0.26623163
124	0x3da52293	0.08063235
125	0xbe5bf61d	-0.21480604
126	0x3d18e713	0.037329745
127	0x3e613bd3	0.21995477
128	0xbe16071d	-0.14651151
129	0x3ed9822c	0.42482126
130	0x3e0327fd	0.12808223
131	0x3dc5bb23	0.09654834
132	0xbcf86489	-0.030321376
133	0xbe96eead	-0.2947897
134	0x3dfa0f64	0.12209967
135	0x3c9c248c	0.019060396
136	0xbe014089	-0.12622274
137	0x3eea198b	0.45722613
138	0xbd55f063	-0.052231204
139	0xbd4622d5	-0.048373062
140	0xbddc6e61	-0.107632406
141	0xbf0359f5	-0.5130914
142	0xbdb5382d	-0.08848605
143	0xbcaf20c5	-0.02137793
144	0xbd19eda5	-0.03758015
145	0x3dfcade3	0.12337854
146	0xbdc9bb42	-0.0985017
147	0xbc324b16	-0.01088216
148	0xbe3ff158	-0.18744409
149	0x3d608a5e	0.054819457
150	0xbd7f6c02	-0.062358864
151	0xbd5ee0ef	-0.054413732
152	0xbd993b67	-0.07482033
153	0x3e7e89f2	0.2485731
154	0xbdbbcd12	-0.091699734
155	0x3deca55e	0.11554979
156	0xbc41cb2f	-0.011828228
157	0xbde05795	-0.10954205
158	0xbdbd1294	-0.09232059
159	0x3e24423b	0.1604089
160	0xbb85d5f1	-0.0040843417
161	0x3e5422b7	0.20716368
162	0xbcd5f407	-0.026117338
163	0xbd339381	-0.043841843
164	0x3cb0ba0b	0.021573087
165	0xbe86896d	-0.26276723
166	0x3d089b2e	0.033351116
167	0xbba68ee1	-0.0050829505
168	0xbc9dbb68	-0.019254401
169	0x3e126b39	0.14298715
170	0xbd5b6875	-0.053566415
171	0x3db67503	0.08909037
172	0x3d6d51dc	0.057939395
173	0xbe821b4c	-0.2541145
174	0xbd796a3d	-0.060892332
175	0x3dbb71dd	0.09152577
176	0xbd911131	-0.07083357
177	0x3e2d37d9	0.16915835
178	0xbdf551fa	-0.119785264
179	0xbe2ea93a	-0.17056742
180	0xbd4a33f6	-0.04936596
181	0xbdab7258	-0.08371419
182	0xbdf14ef8	-0.1178264
183	0xbe1425c9	-0.14467539
184	0xbcb01260	-0.021493137
185	0x3e1928a3	0.14956908
186	0xbd7cb90c	-0.061699912
187	0xbe72e930	-0.23721766
188	0xbc87d470	-0.01658079
189	0x3e137478	0.14399898
190	0xbcd489b9	-0.025944578
191	0xbe9fa00f	-0.31176803
192	0x3e441e76	0.19152245
193	0xbc076e92	-0.008266108
194	0xbdb2bcc4	-0.087274104
195	0xbd6c68b0	-0.057717025
196	0x3d024be6	0.031810664
197	0xbe2e43f5	-0.17018111
198	0xbe090496	-0.13380656
199	0xbe1a5e7b	-0.15075104
200	0x3db933b1	0.090430625
201	0x3c975331	0.018472286
202	0x3d9926df	0.07478117
203	0xbdbbccfd	-0.09169958
204	0xbc8552e3	-0.016274875
205	0xbd837647	-0.06419044
206	0x3d89a179	0.067202516
207	0xbe131548	-0.14363587
208	0x3d30e6d4	0.043188885
209	0xbcced513	-0.025248086
210	0x3d4bee36	0.049787723
211	0x3d55cc52	0.05219681
212	0x3d3f7525	0.046742577
213	0x3dfd62d8	0.123723686
214	0x3d08a681	0.033361915
215	0x3bcf6d9b	0.0063302047
216	0x3e4cbefa	0.19994727
217	0x3d7877fa	0.060661294
218	0xbc836087	-0.016037239
219	0x3dd2a541	0.10285426
220	0x3e56db8b	0.20982186
221	0xbd4acc44	-0.04951121
222	0xbb184f0f	-0.0023240482
223	0x3d5d171e	0.053977124
224	0x3db7d27f	0.08975696
225	0xbcbf7584	-0.023371466
226	0xbcead348	-0.0286652
227	0x3d226fc8	0.039657384
228	0x3e802503	0.25028238
229	0x3ea412e4	0.32045662
230	0x3c903fe0	0.017608583
231	0xbd45d348	-0.048297197
232	0x3d4d168c	0.05007033
233	0x3c4f782c	0.012662929
234	0xbbbe8c90	-0.005815096
235	0x3bee9882	0.007281364
236	0x3e120ef5	0.14263518
237	0x3ec33ca4	0.38132203
238	0x3c9c7b8e	0.019101884
239	0x3d3100cb	0.043213647
240	0xbd2229bf	-0.039590593
241	0xbd9c1529	-0.076212235
242	0x3a8b6ce1	0.0010637307
243	0x3dfa7fd7	0.12231415
244	0x3b7af0d1	0.003829051
245	0x3e2f592b	0.17123859
246	0x3be1b3b8	0.006887879
247	0x3dd777a8	0.105208695
248	0x3d223a57	0.03960642
249	0xbca8d035	-0.020607093
250	0x3c26d998	0.010183714
251	0x3e86e2f4	0.26345026
252	0xbd68c4ee	-0.05682843
253	0x3e2ddefc	0.16979593
254	0x3d9b2d64	0.07577017
255	0x3e49bddf	0.19701336

fc1.bias f4 [256]
0	0x3e9400e5	0.28906932
1	0x3d066682	0.032812603
2	0xbce3a2e3	-0.027787631
3	0xbd917705	-0.07102779
4	0xbdf6c370	-0.120489955
5	0x3dc2ba52	0.09508194
6	0x3e26e27a	0.16297331
7	0xbe82df34	-0.25560915
8	0xbe48d18d	-0.19611187
9	0xbd45c73f	-0.04828572
10	0xbe8285c9	-0.25492695
11	0x3d883ec5	0.06652597
12	0xbe748913	-0.23880415
13	0xbd5a54de	-0.053303592
14	0xbc30cece	-0.010791494
15	0x3e984e1a	0.29747087
16	0x3e94440d	0.2895817
17	0xbcd19e40	-0.025588155
18	0xbd06bfb8	-0.03289768
19	0x3dd357ad	0.10319457
20	0xbe337489	-0.17524923
21	0xbe897684	-0.26848233
22	0x3e06e3d8	0.13172853
23	0x3dbc67d6	0.09199493
24	0xbd914d53	-0.070948265
25	0x3e40cf9f	0.18829201
26	0x3d7edb59	0.062220905
27	0xbc9ae272	-0.018906806
28	0xbe1d7ea5	-0.15380342
29	0xbe4fb79a	-0.20284882
30	0x3e8217cc	0.2540878
31	0xbd33cef5	-0.04389854
32	0x3d9e2e5a	0.077236846
33	0x3dcd443f	0.100227825
34	0x3e608a84	0.2192784
35	0xbe217456	-0.15767035
36	0xbe213120	-0.15741396
37	0xbd6f479f	-0.058417913
38	0xbcaa5501	-0.020792486
39	0xbe1715fb	-0.14754479
40	0xbd58b7a0	-0.052909493
41	0xbd3b5795	-0.04573782
42	0xbe09706f	-0.13421796
43	0xbeafd500	-0.34342194
44	0x3e5c4216	0.21509585
45	0x3e87b1a3	0.26502714
46	0xbe12f8b6	-0.14352688
47	0xbdc458cc	-0.09587249
48	0xbd03bd36	-0.032162867
49	0x3df0100a	0.11721809
50	0xbe107f36	-0.14111027
51	0x3dfc24cf	0.12311708
52	0x3d4ddfeb	0.050262373
53	0x3e64e4f4	0.22352964
54	0xbe875b10	-0.26436663
55	0x3b72c0d2	0.00370412
56	0x3d2c4200	0.04205513
57	0x3e5a3651	0.21309783
58	0xbe916843	-0.28399858
59	0x3e46073f	0.19338702
60	0xbd4e850a	-0.050419845
61	0x3e56b709	0.2096826
62	0xbd935e9f	-0.07195782
63	0x3c201c96	0.00977244
64	0x3d2264d2	0.03964693
65	0xbe8b368f	-0.27190062
66	0xbe6b4ad1	-0.22977759
67	0xbe25b277	-0.1618136
68	0xbe1a201f	-0.15051316
69	0xbe3ed194	-0.18634635
70	0x3df077fc	0.11741635
71	0x3e7c7e95	0.24657662
72	0x3d43e9f7	0.04783055
73	0xbea043f9	-0.3130186
74	0x3e57c7fc	0.21072382
75	0xbd4b73dc	-0.04967104
76	0xbe38f481	-0.18062021
77	0xbe502c40	-0.2032938
78	0x3cb86b49	0.022512095
79	0xbdda0558	-0.106455505
80	0xbd3a99b5	-0.045556743
81	0xbe3498bd	-0.1763639
82	0xbd47989e	-0.04872953
83	0x3dee80ef	0.11645686
84	0xbe25f2f3	-0.16205959
85	0x3e2f7c7b	0.1713733
86	0x3e8ef2e3	0.27919683
87	0xbd8941e5	-0.067020215
88	0xbe33b278	-0.17548549
89	0xbe0ad4da	-0.13557759
90	0xbdfa39b9	-0.12218041
91	0x3d196b9a	0.037456132
92	0xbd82dd4c	-0.06389865
93	0x3cafff7a	0.021484125
94	0x3d1c952e	0.038228206
95	0xbd8f625d	-0.07001183
96	0x3db40a6b	0.087910496
97	0xbd79c50e	-0.06097894
98	0xbd6c6010	-0.0577088
99	0x3d182378	0.0371432
100	0x3e9cedca	0.3065017
101	0x3c877a1e	0.016537722
102	0xbddc254b	-0.107493006
103	0xbd467d38	-0.04845926
104	0x3e7a3e3d	0.24437805
105	0xbe628c48	-0.22123826
106	0xbdd145ea	-0.10218413
107	0xbe488fa7	-0.19586049
108	0xbda21956	-0.07914989
109	0x3d77b66e	0.060476713
110	0xbe510004	-0.20410162
111	0xbdd6e78e	-0.10493384
112	0xbc409de7	-0.011756397
113	0xbdca101b	-0.09866353
114	0x3dcce714	0.10005012
115	0xbe84613f	-0.25855443
116	0x3d7d7fce	0.061889462
117	0x3e1218bc	0.14267248
118	0x3df1d9f0	0.118091464
119	0x3e458190	0.19287705
120	0x3e3fde8c	0.18737239
121	0x3dbb2c09	0.091392584
122	0x3dc180a4	0.094483644
123	0xbe4a6525	-0.19765146
124	0x3e63e4b7	0.22255217
125	0xbb3d6d44	-0.0028904239
126	0x3e16e849	0.14737047
127	0x3e4ea254	0.20179111
128	0x3dfe3363	0.12412145
129	0x3db2b2c6	0.087255046
130	0x3d9e53da	0.07730837
131	0xbdd416f3	-0.1035594
132	0x3be9d1b5	0.0071355947
133	0xbe19af43	-0.15008263
134	0xbbd2aef2	-0.0064295465
135	0xbe0048bb	-0.12527744
136	0xbdec6c93	-0.115441464
137	0xbe8833be	-0.26601976
138	0x3ccec8f0	0.025242299
139	0x3d62f763	0.055411708
140	0xbb826275	-0.003979022
141	0x3e7035b6	0.23457989
142	0x3e076d26	0.1322523
143	0xbd6e0797	-0.058112707
144	0x3e1d1b8c	0.1534254
145	0x3dc625c0	0.09675169
146	0xbddb852c	-0.1071876
147	0x3e50c423	0.2038732
148	0xbbce8248	-0.006302152
149	0x3d9ea84e	0.07746945
150	0xba9f7124	-0.0012164456
151	0xbd9ec55e	-0.077524886
152	0x3c158bfc	0.009127613
153	0xbd95d7a7	-0.07316523
154	0xbdc3ef16	-0.095670864
155	0xbe1c0c78	-0.15239131
156	0xbda3f1ad	-0.0800508
157	0x3e75af2a	0.23992601
158	0x3db418fe	0.087938294
159	0x3e1e36a0	0.15450525
160	0xbe9ae212	-0.30250603
161	0x3d815b37	0.06316226
162	0xbe839f83	-0.25707635
163	0x3e095f2d	0.13415213
164	0xbcf9f354	-0.030511536
165	0xbdbaf9da	-0.09129687
166	0xbd5a3721	-0.05327523
167	0xbe468d1b	-0.19389765
168	0x3e129559	0.14314784
169	0x3e88981a	0.26678544
170	0x3d1b7a76	0.037958585
171	0x3dcb2ee6	0.099210545
172	0xbd06b058	-0.03288302
173	0xbe042005	-0.1290284
174	0x3e41efeb	0.18939178
175	0x3a6e1029	0.00090813875
176	0xbe8e2e93	-0.27769908
177	0xbe4df07b	-0.20111267
178	0x3e39a480	0.18129158
179	0x3dcb0eb7	0.09914916
180	0x3e898ae5	0.2686378
181	0xbe06cac1	-0.13163282
182	0x3d21da74	0.039514974
183	0xbdb74f0b	-0.08950623
184	0xbd7c7e52	-0.061643906
185	0xbe34f97e	-0.17673299
186	0x3e54bb4d	0.20774575
187	0x3e3bed15	0.18352158
188	0x3d0b3375	0.03398462
189	0xbe6b8c89	-0.23002829
190	0x3a470829	0.00075924635
191	0x3d53c21a	0.05169878
192	0xbeafba1b	-0.34321675
193	0x3d04dc0f	0.032436427
194	0x3dbdd6d5	0.092694916
195	0x3e941844	0.28924763
196	0xbc9b0fa7	-0.018928362
197	0x3d9ede4a	0.07757242
198	0x3e1817dd	0.14852853
199	0xbe053063	-0.1300674
200	0xbe5dc8ec	-0.21658677
201	0x3d0d3025	0.034469742
202	0x3e563eeb	0.20922439
203	0xbdf96cdb	-0.12178966
204	0xbea76d87	-0.3270075
205	0xbd909958	-0.07060498
206	0xbe605f1f	-0.21911286
207	0xbe330d7f	-0.17485617
208	0xbe44a383	-0.19203
209	0xbd9007b4	-0.07032719
210	0x3dc630d1	0.0967728
211	0x3d3cc20f	0.046083506
212	0xbda8fecc	-0.08251724
213	0xbdac998a	-0.08427723
214	0x3c2b8a4b	0.010469983
215	0x3e740579	0.23830213
216	0x3e7a609c	0.24450916
217	0xbe35ee31	-0.17766644
218	0xbd7c76b6	-0.06163665
219	0xbe31b1d3	-0.17352991
220	0xbcef9363	-0.029245084
221	0xbeaf3866	-0.34222716
222	0xbe00ebac	-0.12589902
223	0xbe202253	-0.15638094
224	0x3dbbebb3	0.091758154
225	0xbd5e0e35	-0.054212768
226	0x3c9b301c	0.018943839
227	0xbe6cbf92	-0.23119953
228	0x3e669f4c	0.22521704
229	0x3da4afea	0.080413654
230	0xbe7cbb2d	-0.24680777
231	0x3e297354	0.165479
232	0x3e3e90af	0.1860988
233	0x3d030db4	0.03199549
234	0xbe1893dd	-0.14900155
235	0x3e4c054c	0.19923896
236	0xbe8ee71b	-0.27910694
237	0xbce4b27a	-0.027917136
238	0x3e286afb	0.1644706
239	0xbe237dcf	-0.15965961
240	0x3e302d4f	0.17204784
241	0x3e49821d	0.1967854
242	0xbc2346fa	-0.009965653
243	0x3df7a723	0.12092426
244	0x3c11a9f3	0.008890617
245	0x3e10e558	0.14149988
246	0xbd0e0236	-0.034670077
247	0xbe48956e	-0.19588253
248	0xbd386039	-0.04501364
249	0x3e2a9913	0.16659956
250	0x3c65f365	0.014035081
251	0xbbb28fe9	-0.0054492843
252	0xbda57cb4	-0.08080426
253	0xbd6ed73e	-0.05831074
254	0xbdc6aec7	-0.09701305
255	0xbe995458	-0.29947162

fc2.weight f4 [128, 256]
0	0xbde97dbf	-0.11400937
1	0x3d121ffb	0.03567503
2	0xbd4b0ac0	-0.0495708
3	0xbdb8a764	-0.09016302
4	0xbdb0278c	-0.08601293
5	0xbc872b69	-0.016500192
6	0xbe21ee44	-0.15813547
7	0xbe79b702	-0.24386218
8	0xbd1808ec	-0.037117884
9	0x3e1993f0	0.1499784
10	0x3c006146	0.007835692
11	0x3e47b183	0.19501309
12	0x3dec24ec	0.1153048
13	0x3d505630	0.050863445
14	0xbd0653a3	-0.032794606
15	0xbe32fba9	-0.17478813
16	0x3e354d07	0.17705165
17	0xbdbfad0d	-0.09359179
18	0xbd28c423	-0.041202676
19	0x3e623922	0.22092107
20	0xbe41f392	-0.18940571
21	0xbd978e83	-0.07400229
22	0x3ddf7958	0.10911816
23	0x3da02264	0.078190595
24	0x3d63d8c8	0.05562666
25	0xbdd77a3a	-0.1052136
26	0x3d903058	0.07040471
27	0x3dcd36db	0.100202285
28	0x3e3627be	0.17788598
29	0xbd1ef1be	-0.038804762
30	0xbe5cb143	-0.21551995
31	0x3db5ed12	0.08883108
32	0xbcc16565	-0.023607919
33	0x3e3b276e	0.1827676
34	0x3e78ea13	0.24308042
35	0xbe005624	-0.1253286
36	0x3d8621ff	0.06549453
37	0xbe88d19f	-0.26722428
38	0xbe8ee21a	-0.27906877
39	0xbd2346a1	-0.03986228
40	0xbe77dfda	-0.24206486
41	0x3e1aabff	0.15104674
42	0xbbd7edee	-0.0065896427
43	0xbe395c65	-0.18101652
44	0xbd72e57e	-0.059300892
45	0x3be1e20f	0.0068934034
46	0xbc8bd227	-0.017067982
47	0xbe143a33	-0.14475326
48	0x3e04f816	0.12985262
49	0x3d3950c3	0.045243036
50	0xbda53f7e	-0.08068751
51	0x3e3be536	0.18349156
52	0x3ae5f93e	0.0017545593
53	0xbcac1b6a	-0.021009166
54	0x3e7fc452	0.24977234
55	0xbd83b310	-0.06430638
56	0x3db13be2	0.08654
57	0x3de6d3ca	0.11270864
58	0x3e4b6e99	0.19866408
59	0x3cad9fc3	0.021194344
60	0xbdc9cec8	-0.098538935
61	0x3e056355	0.13026173
62	0xbd5fb2c4	-0.054613844
63	0xbdc11a65	-0.094288625
64	0xbd0a26d6	-0.033728443
65	0xbdf5ba3b	-0.11998411
66	0x3de94d53	0.113917015
67	0x3d28bc8b	0.041195434
68	0xbc845f4c	-0.016158722
69	0x3db748b9	0.089494176
70	0xbd864624	-0.06556347
71	0x3daed013	0.08535781
72	0x3d8a4378	0.0675115
73	0xbe0f4200	-0.13990021
74	0x3de739ab	0.11290296
75	0x3d9e444a	0.07727869
76	0xbe948f16	-0.29015416
77	0x3e791d52	0.24327591
78	0x3ccfa559	0.025347399
79	0x3d132135	0.03592034
80	0xbcb2ce67	-0.021826936
81	0x3a3b322c	0.000714096
82	0x3d5b5b7e	0.05355405
83	0x3e07fa6a	0.13279119
84	0x3e053a06	0.13010415
85	0x3da3517d	0.07974527
86	0x3dad8b2b	0.0847381
87	0x3dc70c08	0.09719092
88	0xbd0116e2	-0.031515963
89	0xbbc535ce	-0.006018377
90	0x3d640b6e	0.055674963
91	0xbd75661e	-0.05991184
92	0x3e4b39c5	0.19846256
93	0x3c99f3fd	0.0187931
94	0xbccb0b98	-0.024785802
95	0x3e4263bf	0.18983363
96	0xbe6d694f	-0.23184703
97	0xbd305730	-0.0430519
98	0xbce992cd	-0.028512383
99	0xbd9b2241	-0.07574893
100	0x3e85d54d	0.26139298
101	0xbe811043	-0.2520772
102	0x3e285c52	0.16441467
103	0xbd82f10a	-0.06393631
104	0x3e63880d	0.22219868
105	0x3cea7c01	0.028623583
106	0xbc951315	-0.018197576
107	0xbb6df3f6	-0.0036308742
108	0x3c0d80ad	0.008636636
109	0xbd702cc1	-0.05863643
110	0x3c43e0e1	0.011955471
111	0x3dc5d867	0.09660416
112	0xbdf385dd	-0.11890767
113	0xbe537a19	-0.20652045
114	0xbd015ae4	-0.03158082
115	0xbd5f8073	-0.054565858
116	0xbe7e2a4a	-0.2482082
117	0xbe120d2e	-0.1426284
118	0x3ce35864	0.027752109
119	0x3db8bae0	0.090200186
120	0x3e38f9e4	0.18064076
121	0xbe3a6424	-0.18202263
122	0x3e198700	0.14992905
123	0xbdeeaf1e	-0.11654495
124	0x3dab2e49	0.083584376
125	0xbe55d6d3	-0.2088273
126	0x3c9f9e68	0.019484714
127	0x3e9e86fc	0.3096236
128	0x3d50cbdc	0.050975665
129	0x3ba60df6	0.0050675822
130	0xbe0d830c	-0.13819522
131	0x3e370603	0.17873387
132	0x3b9ae32a	0.004726787
133	0x3dd5cdbf	0.104396336
134	0x3ccc344e	0.024927285
135	0xbdff5061	-0.12466503
136	0x3d58a3ed	0.052890707
137	0xbd86a7c4	-0.065749675
138	0x3e0a199b	0.1348633
139	0x3e4f7bed	0.20262118
140	0xbdc7df19	-0.097593494
141	0x3d0fcf74	0.035109952
142	0x3e21fc0a	0.15818802
143	0x3e0c67f4	0.1371153
144	0xbe03e0c8	-0.12878716
145	0xbea82013	-0.3283697
146	0x3c9a909c	0.018867783
147	0x3c83f6af	0.016108839
148	0x3dde0ad2	0.108419076
149	0xbd215c69	-0.03939477
150	0x3dcddcdb	0.100518905
151	0x3d3b9d14	0.0458041
152	0x3dd68435	0.10474435
153	0x3e955f87	0.29174444
154	0xbdea4386	-0.1143866
155	0xbd4fcdfa	-0.050733544
156	0x3e038d49	0.12846865
157	0xbdaa9d96	-0.083308384
158	0x3d1feb94	0.039043024
159	0xbd4ed8b1	-0.05049962
160	0xbd8372f9	-0.06418414
161	0x3cd4863f	0.02594292
162	0xbe57dc6d	-0.2108018
163	0xbca2fa91	-0.01989487
164	0xbd8d8441	-0.06909991
165	0xbda76930	-0.0817436
166	0x3e034587	0.12819491
167	0xbcd2c6b5	-0.025729517
168	0x3c9e7a95	0.019345561
169	0x3d953eaf	0.072873466
170	0x3e0b75ca	0.13619152
171	0xbdf97b30	-0.12181699
172	0x3dd302ce	0.10303269
173	0x3cfc48c6	0.03079642
174	0x3d4d2194	0.05008085
175	0x3d6d458b	0.05792765
176	0x3e4a8870	0.1977861
177	0x3dbf38bd	0.09336994
178	0xbd4c18f5	-0.04982849
179	0xbdffcbab	-0.124900185
180	0x3bdedd90	0.0068013147
181	0xbd945004	-0.07241824
182	0xbe16cbfe	-0.14726254
183	0x3c6882c1	0.01419133
184	0xbe1f69e8	-0.15567744
185	0x3d8838e5	0.06651477
186	0x3d82d58f	0.06388389
187	0x3d9e9ed3	0.07745137
188	0xbd7c4ea8	-0.06159845
189	0x3b4b11ac	0.0030985875
190	0xbd35d05d	-0.044388164
191	0x3e369a83	0.17832379
192	0xbe6edd74	-0.23326665
193	0x3d8ae8e6	0.06782703
194	0x3d8a19e5	0.0674322
195	0xbe6d0512	-0.23146465
196	0x3d3a9d4b	0.045560163
197	0xbe80b9ed	-0.2514185
198	0xbd2efa7a	-0.04271934
199	0x3d20681b	0.039161783
200	0x3df4fda0	0.11962438
201	0xbdc6e4a9	-0.09711582
202	0x3e1639f5	0.14670546
203	0x3d2fe256	0.04294046
204	0xbc75d842	-0.015005173
205	0x3e0a71c5	0.13519962
206	0x3e01080d	0.12600727
207	0x3d9a302c	0.07528719
208	0x3e76cb03	0.2410088
209	0xbd10fdfb	-0.035398465
210	0x3deff3ee	0.11716448
211	0x3dd47c84	0.10375312
212	0x3d90b08a	0.07064922
213	0x3e1e6a20	0.15470171
214	0xbd976079	-0.073914476
215	0xbdf76ba9	-0.120810814
216	0x3e42973d	0.19003005
217	0x3e259916	0.16171679
218	0x3c9a6ed6	0.018851679
219	0x3dc58c8c	0.09645948
220	0xbda60211	-0.08105863
221	0x3bce9b4a	0.006305133
222	0x3d01e966	0.031716727
223	0xbcef0413	-0.029176747
224	0xbe4901f1	-0.19629647
225	0x3cd15b7c	0.025556318
226	0x3e541588	0.20711339
227	0xbd16fed2	-0.03686411
228	0xbdc68464	-0.0969322
229	0x3d9ae4de	0.07563184
230	0x3e4e6534	0.20155793
231	0xbd2752c4	-0.040850416
232	0x3dabab8b	0.083823286
233	0xbc951a33	-0.01820097
234	0x3e4157a4	0.18881088
235	0x3e83827d	0.25685492
236	0x3e1c3611	0.15255
237	0x3dd5555b	0.10416671
238	0x3d71dab0	0.059046447
239	0x3d60758d	0.054799605
240	0xbd2011ec	-0.03907959
241	0x3ea7e8a0	0.32794666
242	0x3d3defaa	0.04637114
243	0x3e030696	0.12795481
244	0x3df314c0	0.11869192
245	0xbd54d690	-0.051962435
246	0x3e47ae4a	0.1950008
247	0x3e6e14cf	0.23250125
248	0xbdebbe67	-0.11510926
249	0xbde3eebf	-0.111295216
250	0xbdf5376a	-0.1197346
251	0xbbae7a92	-0.00532467
252	0xbde90fe2	-0.113799825
253	0xbdd134eb	-0.102151714
254	0x3dd0e20b	0.10199364
255	0x3e347b10	0.1762507

fc2.bias f4 [128]
0	0x3c20ef18	0.009822629
1	0xbd5b4e86	-0.053541683
2	0x3c62e20d	0.01384784
3	0xbd92b130	-0.07162702
4	0x3db7827d	0.089604355
5	0xbc64e3f3	-0.013970363
6	0xbcac37f1	-0.021022769
7	0x3b1def51	0.0024098943
8	0xbc3da67b	-0.011575337
9	0x3d234675	0.039862115
10	0xbcf6bffc	-0.030120842
11	0x3ccb72a4	0.024834938
12	0x3d95188d	0.07280073
13	0x3c7636d3	0.01502772
14	0x3ca0ad0e	0.019613769
15	0x3c1c91f0	0.009556279
16	0xbd0b382c	-0.033989117
17	0xbd24951a	-0.040181257
18	0x3d2fdd92	0.042935915
19	0xbcc1a1d8	-0.023636743
20	0xbd8c4c09	-0.0685044
21	0x3d74a38d	0.059726287
22	0x3deef416	0.116676494
23	0xbdeebea9	-0.11657459
24	0xbafe8c68	-0.0019420506
25	0xbc3e9cf0	-0.0116340965
26	0xbd65d668	-0.056112677
27	0x3c3547df	0.011064499
28	0xbbc23166	-0.005926299
29	0xbd729ebb	-0.05923341
30	0x3d4c9a85	0.04995205
31	0x3cd22cf1	0.025656195
32	0xbd0b86a2	-0.034063943
33	0x3e2042f5	0.15650542
34	0x3d8c2a73	0.06844034
35	0x3e800435	0.2500321
36	0x3e0aa7e7	0.13540612
37	0x3da9dc0d	0.082939245
38	0x3e4be570	0.19911742
39	0x3e3753d5	0.17903073
40	0x3c042fbb	0.00806802
41	0x3d8861ef	0.06659304
42	0xbc7710b7	-0.015079669
43	0xbe20fdf7	-0.1572188
44	0xbde8861b	-0.113537036
45	0xbb6f5f5b	-0.0036525342
46	0x3dca9239	0.09891171
47	0xbda20ea8	-0.07912952
48	0x3da0d684	0.078534156
49	0x3bfbc08c	0.0076828655
50	0xbd21933a	-0.039447047
51	0x3dcc1c00	0.09966278
52	0x3e077301	0.13227464
53	0x3ca27a25	0.019833634
54	0x3d196f3a	0.03745959
55	0xbd87b740	-0.06626749
56	0x3d22303a	0.039596774
57	0x3d7c5c25	0.061611313
58	0xbd5121e0	-0.051057696
59	0x3ce51c5c	0.027967624
60	0xbd80f674	-0.06297007
61	0x3e0328b9	0.12808503
62	0xbd458587	-0.048223045
63	0xbde7e5a2	-0.11323096
64	0x3e49bff9	0.19702138
65	0x3ccbd0ed	0.024879897
66	0xbc3bc5ea	-0.011460761
67	0x3bdd7769	0.0067586196
68	0xbc2c7897	-0.010526798
69	0x3e023eef	0.1271932
70	0xbd945cb8	-0.07244247
71	0x3d9e7edb	0.077390395
72	0x3d24d313	0.04024036
73	0xbe0674eb	-0.13130538
74	0x3ba41454	0.005007306
75	0x3d778daa	0.060437836
76	0x3dc4a8d2	0.096025124
77	0xbda6eace	-0.08150254
78	0xbbc1d7fc	-0.00591564
79	0xbda26fd1	-0.079314835
80	0xbd502adf	-0.050822135
81	0xbd8599b6	-0.06523459
82	0xbd2cc69b	-0.042181592
83	0x3d7b0218	0.061281294
84	0xbc88629d	-0.016648585
85	0x3d35be31	0.044370834
86	0xbdfcd3ea	-0.12345107
87	0x3d1cae29	0.03825203
88	0xbdd4f7b2	-0.10398807
89	0x3b253c73	0.0025213032
90	0xbd239140	-0.039933443
91	0xbdb6e47b	-0.08930298
92	0xbbb37d12	-0.005477556
93	0xbc427274	-0.011868108
94	0x3b7bb09a	0.0038404823
95	0xbdc3580a	-0.095382765
96	0x3cc611c6	0.024178397
97	0x3e085c1b	0.13316385
98	0xbc9520c5	-0.018204102
99	0xbc666428	-0.014061965
100	0x3d52e906	0.05149176
101	0xbdbea93a	-0.09309621
102	0xbd4a4a9e	-0.049387567
103	0xbbb3c555	-0.0054861703
104	0xbc08ebc5	-0.008356993
105	0x3d6eeb6e	0.058329992
106	0xbe343447	-0.17598067
107	0xbd4618f5	-0.048363645
108	0xbd02b5b5	-0.03191157
109	0xbdc55cb7	-0.096368246
110	0xbd1ded5f	-0.038556453
111	0xbadbc58f	-0.0016767251
112	0x3d0057d0	0.031333745
113	0xbac090b8	-0.0014691567
114	0x3d0cfa41	0.03441835
115	0x3df53ccf	0.11974489
116	0xbd1f6a8f	-0.03891998
117	0x3ccbcd0f	0.024878053
118	0x3daf9ee1	0.085752256
119	0xbd4cd395	-0.050006468
120	0xbc09dd34	-0.008414555
121	0x3c875ea6	0.016524624
122	0xbd97fe7b	-0.07421585
123	0xbdc15ed0	-0.09441912
124	0xbb81209e	-0.003940656
125	0xbd82ca7a	-0.063862756
126	0xbd9380f5	-0.07202331
127	0xbd79fb96	-0.061030947

fc3.weight f4 [2, 128]
0	0x3ec89bc9	0.39181355
1	0x3d213f0c	0.039366767
2	0xbde03e4d	-0.10949383
3	0xbdddc926	-0.10829382
4	0xbe04f14f	-0.12982677
5	0x3d73313f	0.059373137
6	0x3d783b36	0.060603343
7	0xbe56b51d	-0.20967527
8	0xbe565fe7	-0.20935021
9	0x3e056662	0.13027337
10	0xbd50b028	-0.050949246
11	0x3e078f90	0.13238358
12	0x3db7ec57	0.08980625
13	0x3deed114	0.11660972
14	0x3d7f65a8	0.062352806
15	0x3e215fc1	0.15759183
16	0x3df7c8d5	0.120988525
17	0xbd38e793	-0.04514272
18	0x3e175787	0.14779483
19	0x3e347acf	0.17624973
20	0x3d8a2592	0.06745447
21	0xbd412373	-0.047152948
22	0xbe1a294c	-0.15054816
23	0x3d8504ee	0.06495081
24	0x3d8bd932	0.06828536
25	0x3e054d6a	0.13017812
26	0x3e093a74	0.13401204
27	0x3e196f04	0.14983755
28	0xbe4115f3	-0.18856029
29	0x3e00fffd	0.12597652
30	0xbdbc5f5e	-0.09197877
31	0x3e4b8861	0.19876243
32	0x3e3c7e08	0.18407452
33	0xbe897956	-0.26850384
34	0xbea4b868	-0.3217194
35	0xbe5eecc3	-0.21770005
36	0xbe4de7cb	-0.20107953
37	0x3e64c4ff	0.22340773
38	0xbe8f8b65	-0.28036037
39	0xbe54dd41	-0.20787527
40	0x3ebccaf5	0.36873594
41	0xbe4c1d45	-0.1993304
42	0xbe7293ed	-0.23689242
43	0xbe880a7d	-0.26570502
44	0xbe52e410	-0.20594811
45	0xbc01d18a	-0.007923493
46	0xbdd42287	-0.10358148
47	0xbe2e9627	-0.17049466
48	0xbdb86cd2	-0.09005131
49	0x3e6c9ab8	0.23105896
50	0x3de35062	0.11099316
51	0x3c1793d6	0.009251555
52	0xbef0c391	-0.47024205
53	0x3e0f0385	0.13966186
54	0xbe2d5fa7	-0.1693102
55	0x3e11929f	0.14216088
56	0x3e2a3cfb	0.16624825
57	0xbe0d60a7	-0.13806401
58	0xbd969660	-0.073529005
59	0xbe21c849	-0.15799059
60	0x3dbd1183	0.09231856
61	0xbe20f014	-0.15716583
62	0xbee97dcc	-0.45603788
63	0xbbf064a9	-0.0073362184
64	0xbea77370	-0.3270526
65	0x3e08e5cd	0.13368912
66	0xbe9ea897	-0.30988
67	0x3e02c1a1	0.12769176
68	0x3dd828b5	0.10554639
69	0xbe60f227	-0.21967374
70	0x3ddd9f14	0.10821357
71	0xbdca70b5	-0.098847784
72	0x3da6106d	0.08108602
73	0x3ef18c30	0.47177267
74	0x3dfe05cf	0.12403452
75	0x3e802d9f	0.25034806
76	0x3e98deae	0.2985739
77	0x3e798770	0.24368072
78	0xbe5fa218	-0.21839178
79	0x3e82102d	0.25402966
80	0xbebb8eba	-0.3663233
81	0xbe1da386	-0.1539441
82	0xbe8aa024	-0.27075303
83	0xbe2eca3f	-0.17069338
84	0xbd2b4c5e	-0.041820876
85	0x3e8b056f	0.27152583
86	0x3ec1a9d9	0.37824896
87	0x3df70796	0.12061994
88	0x3e014cc4	0.1262694
89	0xba9cd6f4	-0.0011965916
90	0x3e47003a	0.1943368
91	0x3e5ee756	0.21767935
92	0xbe97ce80	-0.29649734
93	0x3de09041	0.10965014
94	0x3e722fd5	0.23651059
95	0x3ec4a5be	0.384077
96	0x3df23ad1	0.118276246
97	0xbe7211ea	-0.23639646
98	0x3ed3858a	0.4131282
99	0xbd581880	-0.05275774
100	0x3ec4bf2d	0.38427106
101	0x3d53f198	0.051744074
102	0xbe063392	-0.1310561
103	0x3e02dab1	0.12778737
104	0x3dcdf704	0.1005688
105	0xbe6efe0e	-0.23339102
106	0xbe08958f	-0.13338302
107	0x3eed9bbe	0.46407884
108	0x3d869b0c	0.065725416
109	0xbe809582	-0.25114065
110	0x3e2fb0c2	0.17157272
111	0x3d55fb03	0.052241337
112	0x3dad8eb2	0.084744826
113	0xbe219751	-0.15780379
114	0x3d9b0921	0.075701006
115	0xbe285849	-0.16439928
116	0x3d692999	0.056924436
117	0x3d9012f6	0.070348665
118	0xbe153313	-0.14570265
119	0x3bac1a1b	0.0052521355
120	0xbe746602	-0.23867038
121	0x3dcda620	0.100414515
122	0x3dcc315d	0.09970353
123	0xbe1023a9	-0.14076103
124	0xbd234771	-0.039863054
125	0xbea4e570	-0.32206297
126	0xbeaa638a	-0.33279067
127	0x3e2800df	0.16406582
128	0x3e0f99c6	0.14023504
129	0xbd8732ff	-0.066015236
130	0x3e7383a5	0.23780687
131	0xbe28aa66	-0.16471252
132	0x3ec2f744	0.38079274
133	0xbdc4c676	-0.09608166
134	0xbe5a78ec	-0.2133519
135	0x3ec4d8de	0.38446707
136	0x3eae8b90	0.34090853
137	0xbd0ef0f8	-0.034897774
138	0xbe801683	-0.25017175
139	0xbd2d7a10	-0.042352736
140	0x3dd6946b	0.10477527
141	0xbd890782	-0.06690885
142	0xbdb63b46	-0.08898024
143	0xbe3e0549	-0.18556704
144	0xbd03723b	-0.03209136
145	0xbe74fb80	-0.23924065
146	0xbe82de6d	-0.25560322
147	0xbe080647	-0.13283645
148	0xbd7e272f	-0.062049087
149	0xbe3f07f4	-0.18655378
150	0x3e07cf9f	0.13262795
151	0xbd854296	-0.06506841
152	0xbd3e974d	-0.04653101
153	0xbd8c1031	-0.06839026
154	0xbe1729eb	-0.14762084
155	0x3e2f0075	0.17090018
156	0xbea81aae	-0.32832855
157	0xbdba278d	-0.09089575
158	0x3e97c305	0.29640976
159	0x3e2ed2c6	0.17072591
160	0x3cc4282c	0.023944937
161	0xbcdc3258	-0.026879475
162	0x3dd3794c	0.1032587
163	0xbeeb05e1	-0.45902923
164	0x3d4c0099	0.049805257
165	0xbdd8c9ea	-0.10585387
166	0xbdd328c5	-0.103105105
167	0xbddc45b0	-0.10755479
168	0x3da568cb	0.08076628
169	0x3e8bbffd	0.27294913
170	0xbe6ee8b2	-0.23330954
171	0xbe372ea9	-0.17888893
172	0xbece58da	-0.40302163
173	0xbe580c11	-0.21098353
174	0x3e03b42f	0.12861703
175	0xbe803fb3	-0.250486
176	0x3caff821	0.021480622
177	0xbe0be6be	-0.1366224
178	0xbd925b37	-0.07146304
179	0x3e0dfca7	0.1386591
180	0x3edac5be	0.4272899
181	0x3d0ddc8b	0.034634154
182	0x3ee3d494	0.44498122
183	0xbe35ea05	-0.17765053
184	0x3ebdfb67	0.37105867
185	0x3ea532e2	0.32265383
186	0xbe803caa	-0.25046283
187	0x3e93eea7	0.28893015
188	0xbe0a69b3	-0.13516884
189	0xbe8bbf9b	-0.2729462
190	0x3eed3973	0.46332893
191	0x3f088f66	0.5334381
192	0xbdb1ff83	-0.08691313
193	0xbc93a4d2	-0.018022928
194	0xbdc7a9f7	-0.09749215
195	0xbd02ed44	-0.031964555
196	0xbe0cf187	-0.1376401
197	0x3e9d1944	0.3068334
198	0xbbd02629	-0.0063522053
199	0x3ea1788b	0.3153728
200	0x3dd99698	0.106244266
201	0x3d5ffac6	0.054682516
202	0xbe4df5af	-0.20113252
203	0x3f1fbe38	0.62399626
204	0xbe04e7b0	-0.12979007
205	0x3ec058df	0.37567803
206	0x3e7ba5fa	0.24575034
207	0x3f4d7342	0.80253994
208	0x3e421745	0.18954189
209	0x3eb27b07	0.34859487
210	0x3e014429	0.12623657
211	0x3e449835	0.19198687
212	0xbda9eda9	-0.08297283
213	0xbd83a57b	-0.06428047
214	0x3ede9710	0.43474627
215	0xbd447852	-0.04796631
216	0xbe3597d4	-0.17733699
217	0xbe6f2d7d	-0.23357196
218	0xbec01d16	-0.3752219
219	0xbd8ceafb	-0.068807565
220	0x3e3bd497	0.18342815
221	0xbe08fb34	-0.13377076
222	0xbd733f9f	-0.059386846
223	0x3e28aae8	0.16471446
224	0xbd9d250c	-0.07673082
225	0x3e94660a	0.289841
226	0x3ecd7349	0.40127018
227	0xbe29b3c3	-0.1657248
228	0xbe105dfa	-0.14098349
229	0x3eb3880e	0.3506474
230	0x3d805051	0.06265319
231	0xbddd9308	-0.108190596
232	0xb879f6dd	-5.9596136e-05
233	0x3ee8e573	0.45487556
234	0xbe8363ae	-0.25661987
235	0x3cbef21c	0.023308806
236	0xbddbfd01	-0.10741616
237	0x3ebc0240	0.36720467
238	0xbe4e47d8	-0.20144594
239	0xbdd1b7ca	-0.10240133
240	0xbe2502ba	-0.16114321
241	0x3b5997f3	0.003320214
242	0xbdcda42d	-0.1004108
243	0x3e7aab8c	0.24479502
244	0xbd8fce4c	-0.0702177
245	0xbd9737fd	-0.07383726
246	0x3e6009f8	0.21878803
247	0xbe34d567	-0.17659532
248	0x3dea1ae6	0.11430912
249	0x3cc16246	0.02360643
250	0xbcc5cf3d	-0.02414667
251	0x3e9fda34	0.31221163
252	0xbe71d5ba	-0.23616686
253	0xbed9338e	-0.42422146
254	0x3eb313fd	0.34976187
255	0xbea71b17	-0.32637855

fc3.bias f4 [2]
0	0xbd35e0de	-0.044403903
1	0x3c99685d	0.018726522
